{
  "model_id": 52,
  "total_score": 7.629673087413732,
  "s_diff": {
    "onnxruntime": 0.0004084521977178638,
    "torchscript": 0.0004080051826956078,
    "torch_compile": 0.48639005326595514,
    "xla": 1.0,
    "tvm": 1.0,
    "tensorflow": 1.0,
    "tflite": 1.0,
    "openvino": 1.0
  },
  "delta_opt": {
    "onnxruntime": 0.0005832819771295625,
    "torchscript": 0.0004080051826956078,
    "torch_compile": 0.14136177564543592,
    "xla": 5.6756981050788814e-05,
    "tvm": 5.6756981050788814e-05,
    "tensorflow": 1.0,
    "tflite": 0.0,
    "openvino": 1.0
  },
  "crashes": [
    "tensorflow+opt",
    "tflite+opt",
    "tflite-opt"
  ],
  "errors": {
    "tensorflow+opt": "XLA does not support pooling ops with explicit padding.\n\t [[{{node MaxPool2d}}]]\n\ttf2xla conversion failed while converting __inference_model_fn_177832[_XlaMustCompile=true,config_proto=13561319589895757934,executor_type=11160318154034397263]. Run with TF_DUMP_GRAPH_PREFIX=/path/to/dump/dir and --vmodule=xla_compiler=2 to obtain a dump of the compiled functions. [Op:__inference_model_fn_177832]",
    "tflite+opt": "Could not translate MLIR to FlatBuffer./home/binduan/myspace/trion/trion/oracle/_onnx_ops.py:358:1: error: 'tf.MaxPool' op is neither a custom op nor a flex op\n        return _pool(node, get, F)\n^\n/home/binduan/myspace/trion/trion/oracle/_onnx_ops.py:575:1: note: called from\n    dH, dW = int(dilations[0]), int(dilations[1])\n^\n/home/binduan/miniconda3/lib/python3.13/site-packages/tensorflow/python/autograph/operators/control_flow.py:1217:1: note: called from\n    _py_if_stmt(cond, body, orelse)\n^\n/home/binduan/miniconda3/lib/python3.13/site-packages/tensorflow/python/autograph/operators/control_flow.py:1270:1: note: called from\n  return body() if cond else orelse()\n^\n/home/binduan/myspace/trion/trion/oracle/_onnx_ops.py:595:1: note: called from\n    else:\n^\n/home/binduan/miniconda3/lib/python3.13/site-packages/tensorflow/python/autograph/operators/control_flow.py:1217:1: note: called from\n    _py_if_stmt(cond, body, orelse)\n^\n/home/binduan/miniconda3/lib/python3.13/site-packages/tensorflow/python/autograph/operators/control_flow.py:1270:1: note: called from\n  return body() if cond else orelse()\n^\n/home/binduan/myspace/trion/trion/oracle/_onnx_ops.py:596:1: note: called from\n        import tensorflow as tf\n^\n/home/binduan/miniconda3/lib/python3.13/site-packages/tensorflow/python/util/traceback_utils.py:164:1: note: called from\n      return fn(*args, **kwargs)\n^\n/home/binduan/miniconda3/lib/python3.13/site-packages/tensorflow/python/util/dispatch.py:1264:1: note: called from\n        return dispatch_target(*args, **kwargs)\n^\n/home/binduan/myspace/trion/trion/oracle/_onnx_ops.py:358:1: note: see current operation: %27 = \"tf.MaxPool\"(%26) <{data_format = \"NHWC\", explicit_paddings = [0, 0, 0, 0, 0, 0, 0, 0], ksize = [1, 2, 2, 1], padding = \"EXPLICIT\", strides = [1, 2, 2, 1]}> {device = \"\"} : (tensor<1x32x16x128xf32>) -> tensor<1x16x8x128xf32>\n        return _pool(node, get, F)\n^\n/home/binduan/myspace/trion/trion/oracle/_onnx_ops.py:358:1: note: Error code: ERROR_NEEDS_FLEX_OPS\n/home/binduan/myspace/trion/trion/oracle/_onnx_ops.py:319:1: error: 'tf.Conv2DBackpropInput' op is neither a custom op nor a flex op\n    if op == \"ConvTranspose\":\n^\n/home/binduan/miniconda3/lib/python3.13/site-packages/tensorflow/python/autograph/operators/control_flow.py:1217:1: note: called from\n    _py_if_stmt(cond, body, orelse)\n^\n/home/binduan/miniconda3/lib/python3.13/site-packages/tensorflow/python/autograph/operators/control_flow.py:1270:1: note: called from\n  return body() if cond else orelse()\n^\n/home/binduan/myspace/trion/trion/oracle/_onnx_ops.py:320:1: note: called from\n        return _conv_transpose(node, get, F)\n^\n/home/binduan/myspace/trion/trion/oracle/_onnx_ops.py:527:1: note: called from\n    if _is_jax_module(F):\n^\n/home/binduan/miniconda3/lib/python3.13/site-packages/tensorflow/python/autograph/operators/control_flow.py:1217:1: note: called from\n    _py_if_stmt(cond, body, orelse)\n^\n/home/binduan/miniconda3/lib/python3.13/site-packages/tensorflow/python/autograph/operators/control_flow.py:1270:1: note: called from\n  return body() if cond else orelse()\n^\n/home/binduan/myspace/trion/trion/oracle/_onnx_ops.py:552:1: note: called from\n        y_nhwc = tf.nn.conv2d_transpose(\n^\n/home/binduan/miniconda3/lib/python3.13/site-packages/tensorflow/python/util/traceback_utils.py:164:1: note: called from\n      return fn(*args, **kwargs)\n^\n/home/binduan/miniconda3/lib/python3.13/site-packages/tensorflow/python/util/dispatch.py:1264:1: note: called from\n        return dispatch_target(*args, **kwargs)\n^\n/home/binduan/myspace/trion/trion/oracle/_onnx_ops.py:319:1: note: see current operation: %28 = \"tf.Conv2DBackpropInput\"(%2, %6, %27) <{data_format = \"NHWC\", dilations = [1, 1, 1, 1], explicit_paddings = [0, 0, 0, 0, 0, 0, 0, 0], padding = \"EXPLICIT\", strides = [1, 2, 2, 1], use_cudnn_on_gpu = true}> {device = \"\"} : (tensor<4xi32>, tensor<2x2x128x128xf32>, tensor<1x16x8x128xf32>) -> tensor<1x32x16x128xf32>\n    if op == \"ConvTranspose\":\n^\n/home/binduan/myspace/trion/trion/oracle/_onnx_ops.py:319:1: note: Error code: ERROR_NEEDS_FLEX_OPS\n<unknown>:0: error: failed while converting: 'main': \nSome ops are not supported by the native TFLite runtime, you can enable TF kernels fallback using TF Select. See instructions: https://www.tensorflow.org/lite/guide/ops_select \nTF Select ops: Conv2DBackpropInput, MaxPool\nDetails:\n\ttf.Conv2DBackpropInput(tensor<4xi32>, tensor<2x2x128x128xf32>, tensor<1x16x8x128xf32>) -> (tensor<1x32x16x128xf32>) : {data_format = \"NHWC\", device = \"\", dilations = [1, 1, 1, 1], explicit_paddings = [0, 0, 0, 0, 0, 0, 0, 0], padding = \"EXPLICIT\", strides = [1, 2, 2, 1], use_cudnn_on_gpu = true}\n\ttf.MaxPool(tensor<1x32x16x128xf32>) -> (tensor<1x16x8x128xf32>) : {data_format = \"NHWC\", device = \"\", explicit_paddings = [0, 0, 0, 0, 0, 0, 0, 0], ksize = [1, 2, 2, 1], padding = \"EXPLICIT\", strides = [1, 2, 2, 1]}\n\n<unknown>:0: note: see current operation: \n\"func.func\"() <{function_type = (tensor<1x3x32x32xf32>) -> tensor<1x32x32x16xf32>, sym_name = \"main\"}> ({\n^bb0(%arg0: tensor<1x3x32x32xf32>):\n  %0 = \"arith.constant\"() <{value = dense<[2, 3]> : tensor<2xi32>}> : () -> tensor<2xi32>\n  %1 = \"arith.constant\"() <{value = dense<16> : tensor<2xi32>}> : () -> tensor<2xi32>\n  %2 = \"arith.constant\"() <{value = dense<[1, 32, 16, 128]> : tensor<4xi32>}> : () -> tensor<4xi32>\n  %3 = \"arith.constant\"() <{value = dense<[[[[0.940686941]], [[0.932732224]], [[0.910141944]]]]> : tensor<1x3x1x1xf32>}> : () -> tensor<1x3x1x1xf32>\n  %4 = \"arith.constant\"() <{value = dense<-1> : tensor<i32>}> : () -> tensor<i32>\n  %5 = \"arith.constant\"() <{value = dense<[0, 3, 1, 2]> : tensor<4xi32>}> : () -> tensor<4xi32>\n  %6 = \"arith.constant\"() <{value = dense_resource<__elided__> : tensor<2x2x128x128xf32>}> : () -> tensor<2x2x128x128xf32>\n  %7 = \"arith.constant\"() <{value = dense<[0, 2, 3, 1]> : tensor<4xi32>}> : () -> tensor<4xi32>\n  %8 = \"arith.constant\"() <{value = dense<0.000000e+00> : tensor<64xf32>}> : () -> tensor<64xf32>\n  %9 = \"arith.constant\"() <{value = dense<0.000000e+00> : tensor<256xf32>}> : () -> tensor<256xf32>\n  %10 = \"arith.constant\"() <{value = dense<0.999994933> : tensor<1x1x1x128xf32>}> : () -> tensor<1x1x1x128xf32>\n  %11 = \"arith.constant\"() <{value = dense<0.000000e+00> : tensor<128xf32>}> : () -> tensor<128xf32>\n  %12 = \"arith.constant\"() <{value = dense<0.000000e+00> : tensor<32xf32>}> : () -> tensor<32xf32>\n  %13 = \"tfl.pseudo_qconst\"() <{qtype = tensor<32x1x1x256x!quant.uniform<i8<-127:127>:f32:0, {… >>, value = dense_resource<__elided__> : tensor<32x1x1x256xi8>}> : () -> tensor<32x1x1x256x!quant.uniform<i8<-127:127>:f32:0, {… >>\n  %14 = \"tfl.pseudo_qconst\"() <{qtype = tensor<128x3x3x3x!quant.uniform<i8<-127:127>:f32:0, {… >>, value = dense_resource<__elided__> : tensor<128x3x3x3xi8>}> : () -> tensor<128x3x3x3x!quant.uniform<i8<-127:127>:f32:0, {… >>\n  %15 = \"tfl.pseudo_qconst\"() <{qtype = tensor<256x3x3x64x!quant.uniform<i8<-127:127>:f32:0, {… >>, value = dense_resource<__elided__> : tensor<256x3x3x64xi8>}> : () -> tensor<256x3x3x64x!quant.uniform<i8<-127:127>:f32:0, {… >>\n  %16 = \"tfl.pseudo_qconst\"() <{qtype = tensor<64x1x1x128x!quant.uniform<i8<-127:127>:f32:0, {… >>, value = dense_resource<__elided__> : tensor<64x1x1x128xi8>}> : () -> tensor<64x1x1x128x!quant.uniform<i8<-127:127>:f32:0, {… >>\n  %17 = \"tfl.pseudo_qconst\"() <{qtype = tensor<64x5x5x128x!quant.uniform<i8<-127:127>:f32:0, {… >>, value = dense_resource<__elided__> : tensor<64x5x5x128xi8>}> : () -> tensor<64x5x5x128x!quant.uniform<i8<-127:127>:f32:0, {… >>\n  %18 = \"tfl.pseudo_qconst\"() <{qtype = tensor<64x3x3x128x!quant.uniform<i8<-127:127>:f32:0, {… >>, value = dense_resource<__elided__> : tensor<64x3x3x128xi8>}> : () -> tensor<64x3x3x128x!quant.uniform<i8<-127:127>:f32:0, {… >>\n  %19:2 = \"tfl.split_v\"(%arg0, %1, %4) <{num_splits = 2 : i32}> : (tensor<1x3x32x32xf32>, tensor<2xi32>, tensor<i32>) -> (tensor<1x3x32x16xf32>, tensor<1x3x32x16xf32>)\n  %20 = \"tfl.logistic\"(%19#1) : (tensor<1x3x32x16xf32>) -> tensor<1x3x32x16xf32>\n  %21 = \"tfl.mul\"(%19#0, %20) <{fused_activation_function = \"NONE\"}> : (tensor<1x3x32x16xf32>, tensor<1x3x32x16xf32>) -> tensor<1x3x32x16xf32>\n  %22 = \"tfl.mean\"(%21, %0) <{keep_dims = true}> : (tensor<1x3x32x16xf32>, tensor<2xi32>) -> tensor<1x3x1x1xf32>\n  %23 = \"tfl.mul\"(%21, %22) <{fused_activation_function = \"NONE\"}> : (tensor<1x3x32x16xf32>, tensor<1x3x1x1xf32>) -> tensor<1x3x32x16xf32>\n  %24 = \"tfl.mul\"(%23, %3) <{fused_activation_function = \"NONE\"}> : (tensor<1x3x32x16xf32>, tensor<1x3x1x1xf32>) -> tensor<1x3x32x16xf32>\n  %25 = \"tfl.transpose\"(%24, %7) : (tensor<1x3x32x16xf32>, tensor<4xi32>) -> tensor<1x32x16x3xf32>\n  %26 = \"tfl.conv_2d\"(%25, %14, %11) <{dilation_h_factor = 1 : i32, dilation_w_factor = 1 : i32, fused_activation_function = \"RELU\", padding = \"SAME\", stride_h = 1 : i32, stride_w = 1 : i32}> : (tensor<1x32x16x3xf32>, tensor<128x3x3x3x!quant.uniform<i8<-127:127>:f32:0, {… >>, tensor<128xf32>) -> tensor<1x32x16x128xf32>\n  %27 = \"tf.MaxPool\"(%26) <{data_format = \"NHWC\", explicit_paddings = [0, 0, 0, 0, 0, 0, 0, 0], ksize = [1, 2, 2, 1], padding = \"EXPLICIT\", strides = [1, 2, 2, 1]}> {device = \"\"} : (tensor<1x32x16x128xf32>) -> tensor<1x16x8x128xf32>\n  %28 = \"tf.Conv2DBackpropInput\"(%2, %6, %27) <{data_format = \"NHWC\", dilations = [1, 1, 1, 1], explicit_paddings = [0, 0, 0, 0, 0, 0, 0, 0], padding = \"EXPLICIT\", strides = [1, 2, 2, 1], use_cudnn_on_gpu = true}> {device = \"\"} : (tensor<4xi32>, tensor<2x2x128x128xf32>, tensor<1x16x8x128xf32>) -> tensor<1x32x16x128xf32>\n  %29 = \"tfl.mul\"(%28, %10) <{fused_activation_function = \"RELU\"}> : (tensor<1x32x16x128xf32>, tensor<1x1x1x128xf32>) -> tensor<1x32x16x128xf32>\n  %30 = \"tfl.conv_2d\"(%29, %18, %8) <{dilation_h_factor = 1 : i32, dilation_w_factor = 1 : i32, fused_activation_function = \"NONE\", padding = \"SAME\", stride_h = 1 : i32, stride_w = 1 : i32}> : (tensor<1x32x16x128xf32>, tensor<64x3x3x128x!quant.uniform<i8<-127:127>:f32:0, {… >>, tensor<64xf32>) -> tensor<1x32x16x64xf32>\n  %31 = \"tfl.conv_2d\"(%29, %17, %8) <{dilation_h_factor = 1 : i32, dilation_w_factor = 1 : i32, fused_activation_function = \"NONE\", padding = \"SAME\", stride_h = 1 : i32, stride_w = 1 : i32}> : (tensor<1x32x16x128xf32>, tensor<64x5x5x128x!quant.uniform<i8<-127:127>:f32:0, {… >>, tensor<64xf32>) -> tensor<1x32x16x64xf32>\n  %32 = \"tfl.conv_2d\"(%29, %16, %8) <{dilation_h_factor = 1 : i32, dilation_w_factor = 1 : i32, fused_activation_function = \"NONE\", padding = \"VALID\", stride_h = 1 : i32, stride_w = 1 : i32}> : (tensor<1x32x16x128xf32>, tensor<64x1x1x128x!quant.uniform<i8<-127:127>:f32:0, {… >>, tensor<64xf32>) -> tensor<1x32x16x64xf32>\n  %33 = \"tfl.add\"(%32, %30) <{fused_activation_function = \"NONE\"}> : (tensor<1x32x16x64xf32>, tensor<1x32x16x64xf32>) -> tensor<1x32x16x64xf32>\n  %34 = \"tfl.add\"(%33, %31) <{fused_activation_function = \"NONE\"}> : (tensor<1x32x16x64xf32>, tensor<1x32x16x64xf32>) -> tensor<1x32x16x64xf32>\n  %35 = \"tfl.conv_2d\"(%34, %15, %9) <{dilation_h_factor = 1 : i32, dilation_w_factor = 1 : i32, fused_activation_function = \"RELU\", padding = \"SAME\", stride_h = 1 : i32, stride_w = 1 : i32}> : (tensor<1x32x16x64xf32>, tensor<256x3x3x64x!quant.uniform<i8<-127:127>:f32:0, {… >>, tensor<256xf32>) -> tensor<1x32x16x256xf32>\n  %36 = \"tfl.conv_2d\"(%35, %13, %12) <{dilation_h_factor = 1 : i32, dilation_w_factor = 1 : i32, fused_activation_function = \"NONE\", padding = \"VALID\", stride_h = 1 : i32, stride_w = 1 : i32}> : (tensor<1x32x16x256xf32>, tensor<32x1x1x256x!quant.uniform<i8<-127:127>:f32:0, {… >>, tensor<32xf32>) -> tensor<1x32x16x32xf32>\n  %37 = \"tfl.transpose\"(%36, %5) : (tensor<1x32x16x32xf32>, tensor<4xi32>) -> tensor<1x32x32x16xf32>\n  \"func.return\"(%37) : (tensor<1x32x32x16xf32>) -> ()\n}) {tf.entry_function = {control_outputs = \"\", inputs = \"input\", outputs = \"Identity\"}} : () -> ()\n",
    "tflite-opt": "Could not translate MLIR to FlatBuffer./home/binduan/myspace/trion/trion/oracle/_onnx_ops.py:358:1: error: 'tf.MaxPool' op is neither a custom op nor a flex op\n        return _pool(node, get, F)\n^\n/home/binduan/myspace/trion/trion/oracle/_onnx_ops.py:575:1: note: called from\n    dH, dW = int(dilations[0]), int(dilations[1])\n^\n/home/binduan/miniconda3/lib/python3.13/site-packages/tensorflow/python/autograph/operators/control_flow.py:1217:1: note: called from\n    _py_if_stmt(cond, body, orelse)\n^\n/home/binduan/miniconda3/lib/python3.13/site-packages/tensorflow/python/autograph/operators/control_flow.py:1270:1: note: called from\n  return body() if cond else orelse()\n^\n/home/binduan/myspace/trion/trion/oracle/_onnx_ops.py:595:1: note: called from\n    else:\n^\n/home/binduan/miniconda3/lib/python3.13/site-packages/tensorflow/python/autograph/operators/control_flow.py:1217:1: note: called from\n    _py_if_stmt(cond, body, orelse)\n^\n/home/binduan/miniconda3/lib/python3.13/site-packages/tensorflow/python/autograph/operators/control_flow.py:1270:1: note: called from\n  return body() if cond else orelse()\n^\n/home/binduan/myspace/trion/trion/oracle/_onnx_ops.py:596:1: note: called from\n        import tensorflow as tf\n^\n/home/binduan/miniconda3/lib/python3.13/site-packages/tensorflow/python/util/traceback_utils.py:164:1: note: called from\n      return fn(*args, **kwargs)\n^\n/home/binduan/miniconda3/lib/python3.13/site-packages/tensorflow/python/util/dispatch.py:1264:1: note: called from\n        return dispatch_target(*args, **kwargs)\n^\n/home/binduan/myspace/trion/trion/oracle/_onnx_ops.py:358:1: note: see current operation: %27 = \"tf.MaxPool\"(%26) <{data_format = \"NHWC\", explicit_paddings = [0, 0, 0, 0, 0, 0, 0, 0], ksize = [1, 2, 2, 1], padding = \"EXPLICIT\", strides = [1, 2, 2, 1]}> {device = \"\"} : (tensor<1x32x16x128xf32>) -> tensor<1x16x8x128xf32>\n        return _pool(node, get, F)\n^\n/home/binduan/myspace/trion/trion/oracle/_onnx_ops.py:358:1: note: Error code: ERROR_NEEDS_FLEX_OPS\n/home/binduan/myspace/trion/trion/oracle/_onnx_ops.py:319:1: error: 'tf.Conv2DBackpropInput' op is neither a custom op nor a flex op\n    if op == \"ConvTranspose\":\n^\n/home/binduan/miniconda3/lib/python3.13/site-packages/tensorflow/python/autograph/operators/control_flow.py:1217:1: note: called from\n    _py_if_stmt(cond, body, orelse)\n^\n/home/binduan/miniconda3/lib/python3.13/site-packages/tensorflow/python/autograph/operators/control_flow.py:1270:1: note: called from\n  return body() if cond else orelse()\n^\n/home/binduan/myspace/trion/trion/oracle/_onnx_ops.py:320:1: note: called from\n        return _conv_transpose(node, get, F)\n^\n/home/binduan/myspace/trion/trion/oracle/_onnx_ops.py:527:1: note: called from\n    if _is_jax_module(F):\n^\n/home/binduan/miniconda3/lib/python3.13/site-packages/tensorflow/python/autograph/operators/control_flow.py:1217:1: note: called from\n    _py_if_stmt(cond, body, orelse)\n^\n/home/binduan/miniconda3/lib/python3.13/site-packages/tensorflow/python/autograph/operators/control_flow.py:1270:1: note: called from\n  return body() if cond else orelse()\n^\n/home/binduan/myspace/trion/trion/oracle/_onnx_ops.py:552:1: note: called from\n        y_nhwc = tf.nn.conv2d_transpose(\n^\n/home/binduan/miniconda3/lib/python3.13/site-packages/tensorflow/python/util/traceback_utils.py:164:1: note: called from\n      return fn(*args, **kwargs)\n^\n/home/binduan/miniconda3/lib/python3.13/site-packages/tensorflow/python/util/dispatch.py:1264:1: note: called from\n        return dispatch_target(*args, **kwargs)\n^\n/home/binduan/myspace/trion/trion/oracle/_onnx_ops.py:319:1: note: see current operation: %28 = \"tf.Conv2DBackpropInput\"(%16, %12, %27) <{data_format = \"NHWC\", dilations = [1, 1, 1, 1], explicit_paddings = [0, 0, 0, 0, 0, 0, 0, 0], padding = \"EXPLICIT\", strides = [1, 2, 2, 1], use_cudnn_on_gpu = true}> {device = \"\"} : (tensor<4xi32>, tensor<2x2x128x128xf32>, tensor<1x16x8x128xf32>) -> tensor<1x32x16x128xf32>\n    if op == \"ConvTranspose\":\n^\n/home/binduan/myspace/trion/trion/oracle/_onnx_ops.py:319:1: note: Error code: ERROR_NEEDS_FLEX_OPS\n<unknown>:0: error: failed while converting: 'main': \nSome ops are not supported by the native TFLite runtime, you can enable TF kernels fallback using TF Select. See instructions: https://www.tensorflow.org/lite/guide/ops_select \nTF Select ops: Conv2DBackpropInput, MaxPool\nDetails:\n\ttf.Conv2DBackpropInput(tensor<4xi32>, tensor<2x2x128x128xf32>, tensor<1x16x8x128xf32>) -> (tensor<1x32x16x128xf32>) : {data_format = \"NHWC\", device = \"\", dilations = [1, 1, 1, 1], explicit_paddings = [0, 0, 0, 0, 0, 0, 0, 0], padding = \"EXPLICIT\", strides = [1, 2, 2, 1], use_cudnn_on_gpu = true}\n\ttf.MaxPool(tensor<1x32x16x128xf32>) -> (tensor<1x16x8x128xf32>) : {data_format = \"NHWC\", device = \"\", explicit_paddings = [0, 0, 0, 0, 0, 0, 0, 0], ksize = [1, 2, 2, 1], padding = \"EXPLICIT\", strides = [1, 2, 2, 1]}\n\n<unknown>:0: note: see current operation: \n\"func.func\"() <{function_type = (tensor<1x3x32x32xf32>) -> tensor<1x32x32x16xf32>, sym_name = \"main\"}> ({\n^bb0(%arg0: tensor<1x3x32x32xf32>):\n  %0 = \"arith.constant\"() <{value = dense<0.000000e+00> : tensor<32xf32>}> : () -> tensor<32xf32>\n  %1 = \"arith.constant\"() <{value = dense_resource<__elided__> : tensor<32x1x1x256xf32>}> : () -> tensor<32x1x1x256xf32>\n  %2 = \"arith.constant\"() <{value = dense<0.000000e+00> : tensor<128xf32>}> : () -> tensor<128xf32>\n  %3 = \"arith.constant\"() <{value = dense_resource<__elided__> : tensor<128x3x3x3xf32>}> : () -> tensor<128x3x3x3xf32>\n  %4 = \"arith.constant\"() <{value = dense<0.999994933> : tensor<1x1x1x128xf32>}> : () -> tensor<1x1x1x128xf32>\n  %5 = \"arith.constant\"() <{value = dense_resource<__elided__> : tensor<256x3x3x64xf32>}> : () -> tensor<256x3x3x64xf32>\n  %6 = \"arith.constant\"() <{value = dense<0.000000e+00> : tensor<256xf32>}> : () -> tensor<256xf32>\n  %7 = \"arith.constant\"() <{value = dense_resource<__elided__> : tensor<64x1x1x128xf32>}> : () -> tensor<64x1x1x128xf32>\n  %8 = \"arith.constant\"() <{value = dense_resource<__elided__> : tensor<64x5x5x128xf32>}> : () -> tensor<64x5x5x128xf32>\n  %9 = \"arith.constant\"() <{value = dense_resource<__elided__> : tensor<64x3x3x128xf32>}> : () -> tensor<64x3x3x128xf32>\n  %10 = \"arith.constant\"() <{value = dense<0.000000e+00> : tensor<64xf32>}> : () -> tensor<64xf32>\n  %11 = \"arith.constant\"() <{value = dense<[0, 2, 3, 1]> : tensor<4xi32>}> : () -> tensor<4xi32>\n  %12 = \"arith.constant\"() <{value = dense_resource<__elided__> : tensor<2x2x128x128xf32>}> : () -> tensor<2x2x128x128xf32>\n  %13 = \"arith.constant\"() <{value = dense<[0, 3, 1, 2]> : tensor<4xi32>}> : () -> tensor<4xi32>\n  %14 = \"arith.constant\"() <{value = dense<-1> : tensor<i32>}> : () -> tensor<i32>\n  %15 = \"arith.constant\"() <{value = dense<[[[[0.940686941]], [[0.932732224]], [[0.910141944]]]]> : tensor<1x3x1x1xf32>}> : () -> tensor<1x3x1x1xf32>\n  %16 = \"arith.constant\"() <{value = dense<[1, 32, 16, 128]> : tensor<4xi32>}> : () -> tensor<4xi32>\n  %17 = \"arith.constant\"() <{value = dense<16> : tensor<2xi32>}> : () -> tensor<2xi32>\n  %18 = \"arith.constant\"() <{value = dense<[2, 3]> : tensor<2xi32>}> : () -> tensor<2xi32>\n  %19:2 = \"tfl.split_v\"(%arg0, %17, %14) <{num_splits = 2 : i32}> : (tensor<1x3x32x32xf32>, tensor<2xi32>, tensor<i32>) -> (tensor<1x3x32x16xf32>, tensor<1x3x32x16xf32>)\n  %20 = \"tfl.logistic\"(%19#1) : (tensor<1x3x32x16xf32>) -> tensor<1x3x32x16xf32>\n  %21 = \"tfl.mul\"(%19#0, %20) <{fused_activation_function = \"NONE\"}> : (tensor<1x3x32x16xf32>, tensor<1x3x32x16xf32>) -> tensor<1x3x32x16xf32>\n  %22 = \"tfl.mean\"(%21, %18) <{keep_dims = true}> : (tensor<1x3x32x16xf32>, tensor<2xi32>) -> tensor<1x3x1x1xf32>\n  %23 = \"tfl.mul\"(%21, %22) <{fused_activation_function = \"NONE\"}> : (tensor<1x3x32x16xf32>, tensor<1x3x1x1xf32>) -> tensor<1x3x32x16xf32>\n  %24 = \"tfl.mul\"(%23, %15) <{fused_activation_function = \"NONE\"}> : (tensor<1x3x32x16xf32>, tensor<1x3x1x1xf32>) -> tensor<1x3x32x16xf32>\n  %25 = \"tfl.transpose\"(%24, %11) : (tensor<1x3x32x16xf32>, tensor<4xi32>) -> tensor<1x32x16x3xf32>\n  %26 = \"tfl.conv_2d\"(%25, %3, %2) <{dilation_h_factor = 1 : i32, dilation_w_factor = 1 : i32, fused_activation_function = \"RELU\", padding = \"SAME\", stride_h = 1 : i32, stride_w = 1 : i32}> : (tensor<1x32x16x3xf32>, tensor<128x3x3x3xf32>, tensor<128xf32>) -> tensor<1x32x16x128xf32>\n  %27 = \"tf.MaxPool\"(%26) <{data_format = \"NHWC\", explicit_paddings = [0, 0, 0, 0, 0, 0, 0, 0], ksize = [1, 2, 2, 1], padding = \"EXPLICIT\", strides = [1, 2, 2, 1]}> {device = \"\"} : (tensor<1x32x16x128xf32>) -> tensor<1x16x8x128xf32>\n  %28 = \"tf.Conv2DBackpropInput\"(%16, %12, %27) <{data_format = \"NHWC\", dilations = [1, 1, 1, 1], explicit_paddings = [0, 0, 0, 0, 0, 0, 0, 0], padding = \"EXPLICIT\", strides = [1, 2, 2, 1], use_cudnn_on_gpu = true}> {device = \"\"} : (tensor<4xi32>, tensor<2x2x128x128xf32>, tensor<1x16x8x128xf32>) -> tensor<1x32x16x128xf32>\n  %29 = \"tfl.mul\"(%28, %4) <{fused_activation_function = \"RELU\"}> : (tensor<1x32x16x128xf32>, tensor<1x1x1x128xf32>) -> tensor<1x32x16x128xf32>\n  %30 = \"tfl.conv_2d\"(%29, %9, %10) <{dilation_h_factor = 1 : i32, dilation_w_factor = 1 : i32, fused_activation_function = \"NONE\", padding = \"SAME\", stride_h = 1 : i32, stride_w = 1 : i32}> : (tensor<1x32x16x128xf32>, tensor<64x3x3x128xf32>, tensor<64xf32>) -> tensor<1x32x16x64xf32>\n  %31 = \"tfl.conv_2d\"(%29, %8, %10) <{dilation_h_factor = 1 : i32, dilation_w_factor = 1 : i32, fused_activation_function = \"NONE\", padding = \"SAME\", stride_h = 1 : i32, stride_w = 1 : i32}> : (tensor<1x32x16x128xf32>, tensor<64x5x5x128xf32>, tensor<64xf32>) -> tensor<1x32x16x64xf32>\n  %32 = \"tfl.conv_2d\"(%29, %7, %10) <{dilation_h_factor = 1 : i32, dilation_w_factor = 1 : i32, fused_activation_function = \"NONE\", padding = \"VALID\", stride_h = 1 : i32, stride_w = 1 : i32}> : (tensor<1x32x16x128xf32>, tensor<64x1x1x128xf32>, tensor<64xf32>) -> tensor<1x32x16x64xf32>\n  %33 = \"tfl.add\"(%32, %30) <{fused_activation_function = \"NONE\"}> : (tensor<1x32x16x64xf32>, tensor<1x32x16x64xf32>) -> tensor<1x32x16x64xf32>\n  %34 = \"tfl.add\"(%33, %31) <{fused_activation_function = \"NONE\"}> : (tensor<1x32x16x64xf32>, tensor<1x32x16x64xf32>) -> tensor<1x32x16x64xf32>\n  %35 = \"tfl.conv_2d\"(%34, %5, %6) <{dilation_h_factor = 1 : i32, dilation_w_factor = 1 : i32, fused_activation_function = \"RELU\", padding = \"SAME\", stride_h = 1 : i32, stride_w = 1 : i32}> : (tensor<1x32x16x64xf32>, tensor<256x3x3x64xf32>, tensor<256xf32>) -> tensor<1x32x16x256xf32>\n  %36 = \"tfl.conv_2d\"(%35, %1, %0) <{dilation_h_factor = 1 : i32, dilation_w_factor = 1 : i32, fused_activation_function = \"NONE\", padding = \"VALID\", stride_h = 1 : i32, stride_w = 1 : i32}> : (tensor<1x32x16x256xf32>, tensor<32x1x1x256xf32>, tensor<32xf32>) -> tensor<1x32x16x32xf32>\n  %37 = \"tfl.transpose\"(%36, %13) : (tensor<1x32x16x32xf32>, tensor<4xi32>) -> tensor<1x32x32x16xf32>\n  \"func.return\"(%37) : (tensor<1x32x32x16xf32>) -> ()\n}) {tf.entry_function = {control_outputs = \"\", inputs = \"input\", outputs = \"Identity\"}} : () -> ()\n"
  },
  "pattern_sequence": [
    [
      "branch",
      "glu"
    ],
    [
      "normalization",
      "spatial_reduce_mean"
    ],
    [
      "fusion",
      "conv_bn_relu_maxpool"
    ],
    [
      "fusion",
      "conv_transpose_bn_relu"
    ],
    [
      "branch",
      "multi_scale_conv_branch"
    ],
    [
      "fusion",
      "conv_relu_conv_bn"
    ]
  ],
  "input_shape": [
    1,
    3,
    32,
    32
  ]
}