{
  "model_id": 43,
  "total_score": 12.0,
  "s_diff": {
    "onnxruntime": 1.0,
    "torchscript": 0.0,
    "torch_compile": 1.0,
    "xla": 1.0,
    "tvm": 1.0,
    "tensorflow": 1.0,
    "tflite": 1.0,
    "openvino": 1.0
  },
  "delta_opt": {
    "onnxruntime": 1.0,
    "torchscript": 0.0,
    "torch_compile": 1.0,
    "xla": 1.0,
    "tvm": 1.0,
    "tensorflow": 1.0,
    "tflite": 0.0,
    "openvino": 0.0
  },
  "crashes": [
    "tensorflow+opt",
    "tflite+opt",
    "tflite-opt"
  ],
  "errors": {
    "tensorflow+opt": "XLA does not support pooling ops with explicit padding.\n\t [[{{node MaxPool2d}}]]\n\ttf2xla conversion failed while converting __inference_model_fn_154445[_XlaMustCompile=true,config_proto=13561319589895757934,executor_type=11160318154034397263]. Run with TF_DUMP_GRAPH_PREFIX=/path/to/dump/dir and --vmodule=xla_compiler=2 to obtain a dump of the compiled functions. [Op:__inference_model_fn_154445]",
    "tflite+opt": "Could not translate MLIR to FlatBuffer./home/binduan/myspace/trion/trion/oracle/_onnx_ops.py:358:1: error: 'tf.MaxPool' op is neither a custom op nor a flex op\n        return _pool(node, get, F)\n^\n/home/binduan/myspace/trion/trion/oracle/_onnx_ops.py:575:1: note: called from\n    dH, dW = int(dilations[0]), int(dilations[1])\n^\n/home/binduan/miniconda3/lib/python3.13/site-packages/tensorflow/python/autograph/operators/control_flow.py:1217:1: note: called from\n    _py_if_stmt(cond, body, orelse)\n^\n/home/binduan/miniconda3/lib/python3.13/site-packages/tensorflow/python/autograph/operators/control_flow.py:1270:1: note: called from\n  return body() if cond else orelse()\n^\n/home/binduan/myspace/trion/trion/oracle/_onnx_ops.py:595:1: note: called from\n    else:\n^\n/home/binduan/miniconda3/lib/python3.13/site-packages/tensorflow/python/autograph/operators/control_flow.py:1217:1: note: called from\n    _py_if_stmt(cond, body, orelse)\n^\n/home/binduan/miniconda3/lib/python3.13/site-packages/tensorflow/python/autograph/operators/control_flow.py:1270:1: note: called from\n  return body() if cond else orelse()\n^\n/home/binduan/myspace/trion/trion/oracle/_onnx_ops.py:596:1: note: called from\n        import tensorflow as tf\n^\n/home/binduan/miniconda3/lib/python3.13/site-packages/tensorflow/python/util/traceback_utils.py:164:1: note: called from\n      return fn(*args, **kwargs)\n^\n/home/binduan/miniconda3/lib/python3.13/site-packages/tensorflow/python/util/dispatch.py:1264:1: note: called from\n        return dispatch_target(*args, **kwargs)\n^\n/home/binduan/myspace/trion/trion/oracle/_onnx_ops.py:358:1: note: see current operation: %32 = \"tf.MaxPool\"(%31) <{data_format = \"NHWC\", explicit_paddings = [0, 0, 1, 1, 1, 1, 0, 0], ksize = [1, 3, 3, 1], padding = \"EXPLICIT\", strides = [1, 1, 1, 1]}> {device = \"\"} : (tensor<1x32x32x3xf32>) -> tensor<1x32x32x3xf32>\n        return _pool(node, get, F)\n^\n/home/binduan/myspace/trion/trion/oracle/_onnx_ops.py:358:1: note: Error code: ERROR_NEEDS_FLEX_OPS\n<unknown>:0: error: failed while converting: 'main': \nSome ops are not supported by the native TFLite runtime, you can enable TF kernels fallback using TF Select. See instructions: https://www.tensorflow.org/lite/guide/ops_select \nTF Select ops: MaxPool\nDetails:\n\ttf.MaxPool(tensor<1x32x32x3xf32>) -> (tensor<1x32x32x3xf32>) : {data_format = \"NHWC\", device = \"\", explicit_paddings = [0, 0, 1, 1, 1, 1, 0, 0], ksize = [1, 3, 3, 1], padding = \"EXPLICIT\", strides = [1, 1, 1, 1]}\n\n<unknown>:0: note: see current operation: \n\"func.func\"() <{function_type = (tensor<1x3x32x32xf32>) -> tensor<1x3x32x32xf32>, sym_name = \"main\"}> ({\n^bb0(%arg0: tensor<1x3x32x32xf32>):\n  %0 = \"arith.constant\"() <{value = dense<5.000000e-01> : tensor<1xf32>}> : () -> tensor<1xf32>\n  %1 = \"arith.constant\"() <{value = dense<[0, 3, 1, 2]> : tensor<4xi32>}> : () -> tensor<4xi32>\n  %2 = \"arith.constant\"() <{value = dense<[0, 2, 3, 1]> : tensor<4xi32>}> : () -> tensor<4xi32>\n  %3 = \"arith.constant\"() <{value = dense<[[[[1.07884991]], [[1.137007]], [[0.940427362]]]]> : tensor<1x3x1x1xf32>}> : () -> tensor<1x3x1x1xf32>\n  %4 = \"arith.constant\"() <{value = dense<0.928521215> : tensor<1x1x1x1xf32>}> : () -> tensor<1x1x1x1xf32>\n  %5 = \"arith.constant\"() <{value = dense<0.741396248> : tensor<1xf32>}> : () -> tensor<1xf32>\n  %6 = \"arith.constant\"() <{value = dense_resource<__elided__> : tensor<1x3x32x32xf32>}> : () -> tensor<1x3x32x32xf32>\n  %7 = \"arith.constant\"() <{value = dense<9.99999997E-7> : tensor<1xf32>}> : () -> tensor<1xf32>\n  %8 = \"arith.constant\"() <{value = dense<9.99999974E-6> : tensor<1xf32>}> : () -> tensor<1xf32>\n  %9 = \"arith.constant\"() <{value = dense<-1> : tensor<1xi32>}> : () -> tensor<1xi32>\n  %10 = \"arith.constant\"() <{value = dense<[2, 3]> : tensor<2xi32>}> : () -> tensor<2xi32>\n  %11 = \"tfl.add\"(%arg0, %6) <{fused_activation_function = \"RELU\"}> : (tensor<1x3x32x32xf32>, tensor<1x3x32x32xf32>) -> tensor<1x3x32x32xf32>\n  %12 = \"tfl.mul\"(%11, %5) <{fused_activation_function = \"NONE\"}> : (tensor<1x3x32x32xf32>, tensor<1xf32>) -> tensor<1x3x32x32xf32>\n  %13 = \"tfl.add\"(%12, %12) <{fused_activation_function = \"NONE\"}> : (tensor<1x3x32x32xf32>, tensor<1x3x32x32xf32>) -> tensor<1x3x32x32xf32>\n  %14 = \"tfl.mul\"(%13, %0) <{fused_activation_function = \"NONE\"}> : (tensor<1x3x32x32xf32>, tensor<1xf32>) -> tensor<1x3x32x32xf32>\n  %15 = \"tfl.mul\"(%14, %14) <{fused_activation_function = \"NONE\"}> : (tensor<1x3x32x32xf32>, tensor<1x3x32x32xf32>) -> tensor<1x3x32x32xf32>\n  %16 = \"tfl.mean\"(%15, %9) <{keep_dims = true}> : (tensor<1x3x32x32xf32>, tensor<1xi32>) -> tensor<1x3x32x1xf32>\n  %17 = \"tfl.add\"(%16, %7) <{fused_activation_function = \"NONE\"}> : (tensor<1x3x32x1xf32>, tensor<1xf32>) -> tensor<1x3x32x1xf32>\n  %18 = \"tfl.rsqrt\"(%17) : (tensor<1x3x32x1xf32>) -> tensor<1x3x32x1xf32>\n  %19 = \"tfl.mul\"(%14, %18) <{fused_activation_function = \"NONE\"}> : (tensor<1x3x32x32xf32>, tensor<1x3x32x1xf32>) -> tensor<1x3x32x32xf32>\n  %20 = \"tfl.mean\"(%19, %9) <{keep_dims = true}> : (tensor<1x3x32x32xf32>, tensor<1xi32>) -> tensor<1x3x32x1xf32>\n  %21 = \"tfl.sub\"(%19, %20) <{fused_activation_function = \"NONE\"}> : (tensor<1x3x32x32xf32>, tensor<1x3x32x1xf32>) -> tensor<1x3x32x32xf32>\n  %22 = \"tfl.mul\"(%21, %21) <{fused_activation_function = \"NONE\"}> : (tensor<1x3x32x32xf32>, tensor<1x3x32x32xf32>) -> tensor<1x3x32x32xf32>\n  %23 = \"tfl.mean\"(%22, %9) <{keep_dims = true}> : (tensor<1x3x32x32xf32>, tensor<1xi32>) -> tensor<1x3x32x1xf32>\n  %24 = \"tfl.add\"(%23, %8) <{fused_activation_function = \"NONE\"}> : (tensor<1x3x32x1xf32>, tensor<1xf32>) -> tensor<1x3x32x1xf32>\n  %25 = \"tfl.sqrt\"(%24) : (tensor<1x3x32x1xf32>) -> tensor<1x3x32x1xf32>\n  %26 = \"tfl.div\"(%21, %25) <{fused_activation_function = \"NONE\"}> : (tensor<1x3x32x32xf32>, tensor<1x3x32x1xf32>) -> tensor<1x3x32x32xf32>\n  %27 = \"tfl.mul\"(%26, %4) <{fused_activation_function = \"NONE\"}> : (tensor<1x3x32x32xf32>, tensor<1x1x1x1xf32>) -> tensor<1x3x32x32xf32>\n  %28 = \"tfl.mean\"(%27, %10) <{keep_dims = true}> : (tensor<1x3x32x32xf32>, tensor<2xi32>) -> tensor<1x3x1x1xf32>\n  %29 = \"tfl.mul\"(%27, %28) <{fused_activation_function = \"NONE\"}> : (tensor<1x3x32x32xf32>, tensor<1x3x1x1xf32>) -> tensor<1x3x32x32xf32>\n  %30 = \"tfl.mul\"(%29, %3) <{fused_activation_function = \"NONE\"}> : (tensor<1x3x32x32xf32>, tensor<1x3x1x1xf32>) -> tensor<1x3x32x32xf32>\n  %31 = \"tfl.transpose\"(%30, %2) : (tensor<1x3x32x32xf32>, tensor<4xi32>) -> tensor<1x32x32x3xf32>\n  %32 = \"tf.MaxPool\"(%31) <{data_format = \"NHWC\", explicit_paddings = [0, 0, 1, 1, 1, 1, 0, 0], ksize = [1, 3, 3, 1], padding = \"EXPLICIT\", strides = [1, 1, 1, 1]}> {device = \"\"} : (tensor<1x32x32x3xf32>) -> tensor<1x32x32x3xf32>\n  %33 = \"tfl.transpose\"(%32, %1) : (tensor<1x32x32x3xf32>, tensor<4xi32>) -> tensor<1x3x32x32xf32>\n  \"func.return\"(%33) : (tensor<1x3x32x32xf32>) -> ()\n}) {tf.entry_function = {control_outputs = \"\", inputs = \"input\", outputs = \"Identity\"}} : () -> ()\n",
    "tflite-opt": "Could not translate MLIR to FlatBuffer./home/binduan/myspace/trion/trion/oracle/_onnx_ops.py:358:1: error: 'tf.MaxPool' op is neither a custom op nor a flex op\n        return _pool(node, get, F)\n^\n/home/binduan/myspace/trion/trion/oracle/_onnx_ops.py:575:1: note: called from\n    dH, dW = int(dilations[0]), int(dilations[1])\n^\n/home/binduan/miniconda3/lib/python3.13/site-packages/tensorflow/python/autograph/operators/control_flow.py:1217:1: note: called from\n    _py_if_stmt(cond, body, orelse)\n^\n/home/binduan/miniconda3/lib/python3.13/site-packages/tensorflow/python/autograph/operators/control_flow.py:1270:1: note: called from\n  return body() if cond else orelse()\n^\n/home/binduan/myspace/trion/trion/oracle/_onnx_ops.py:595:1: note: called from\n    else:\n^\n/home/binduan/miniconda3/lib/python3.13/site-packages/tensorflow/python/autograph/operators/control_flow.py:1217:1: note: called from\n    _py_if_stmt(cond, body, orelse)\n^\n/home/binduan/miniconda3/lib/python3.13/site-packages/tensorflow/python/autograph/operators/control_flow.py:1270:1: note: called from\n  return body() if cond else orelse()\n^\n/home/binduan/myspace/trion/trion/oracle/_onnx_ops.py:596:1: note: called from\n        import tensorflow as tf\n^\n/home/binduan/miniconda3/lib/python3.13/site-packages/tensorflow/python/util/traceback_utils.py:164:1: note: called from\n      return fn(*args, **kwargs)\n^\n/home/binduan/miniconda3/lib/python3.13/site-packages/tensorflow/python/util/dispatch.py:1264:1: note: called from\n        return dispatch_target(*args, **kwargs)\n^\n/home/binduan/myspace/trion/trion/oracle/_onnx_ops.py:358:1: note: see current operation: %32 = \"tf.MaxPool\"(%31) <{data_format = \"NHWC\", explicit_paddings = [0, 0, 1, 1, 1, 1, 0, 0], ksize = [1, 3, 3, 1], padding = \"EXPLICIT\", strides = [1, 1, 1, 1]}> {device = \"\"} : (tensor<1x32x32x3xf32>) -> tensor<1x32x32x3xf32>\n        return _pool(node, get, F)\n^\n/home/binduan/myspace/trion/trion/oracle/_onnx_ops.py:358:1: note: Error code: ERROR_NEEDS_FLEX_OPS\n<unknown>:0: error: failed while converting: 'main': \nSome ops are not supported by the native TFLite runtime, you can enable TF kernels fallback using TF Select. See instructions: https://www.tensorflow.org/lite/guide/ops_select \nTF Select ops: MaxPool\nDetails:\n\ttf.MaxPool(tensor<1x32x32x3xf32>) -> (tensor<1x32x32x3xf32>) : {data_format = \"NHWC\", device = \"\", explicit_paddings = [0, 0, 1, 1, 1, 1, 0, 0], ksize = [1, 3, 3, 1], padding = \"EXPLICIT\", strides = [1, 1, 1, 1]}\n\n<unknown>:0: note: see current operation: \n\"func.func\"() <{function_type = (tensor<1x3x32x32xf32>) -> tensor<1x3x32x32xf32>, sym_name = \"main\"}> ({\n^bb0(%arg0: tensor<1x3x32x32xf32>):\n  %0 = \"arith.constant\"() <{value = dense<5.000000e-01> : tensor<1xf32>}> : () -> tensor<1xf32>\n  %1 = \"arith.constant\"() <{value = dense<[0, 3, 1, 2]> : tensor<4xi32>}> : () -> tensor<4xi32>\n  %2 = \"arith.constant\"() <{value = dense<[0, 2, 3, 1]> : tensor<4xi32>}> : () -> tensor<4xi32>\n  %3 = \"arith.constant\"() <{value = dense<[[[[1.07884991]], [[1.137007]], [[0.940427362]]]]> : tensor<1x3x1x1xf32>}> : () -> tensor<1x3x1x1xf32>\n  %4 = \"arith.constant\"() <{value = dense<0.928521215> : tensor<1x1x1x1xf32>}> : () -> tensor<1x1x1x1xf32>\n  %5 = \"arith.constant\"() <{value = dense<0.741396248> : tensor<1xf32>}> : () -> tensor<1xf32>\n  %6 = \"arith.constant\"() <{value = dense_resource<__elided__> : tensor<1x3x32x32xf32>}> : () -> tensor<1x3x32x32xf32>\n  %7 = \"arith.constant\"() <{value = dense<9.99999997E-7> : tensor<1xf32>}> : () -> tensor<1xf32>\n  %8 = \"arith.constant\"() <{value = dense<9.99999974E-6> : tensor<1xf32>}> : () -> tensor<1xf32>\n  %9 = \"arith.constant\"() <{value = dense<-1> : tensor<1xi32>}> : () -> tensor<1xi32>\n  %10 = \"arith.constant\"() <{value = dense<[2, 3]> : tensor<2xi32>}> : () -> tensor<2xi32>\n  %11 = \"tfl.add\"(%arg0, %6) <{fused_activation_function = \"RELU\"}> : (tensor<1x3x32x32xf32>, tensor<1x3x32x32xf32>) -> tensor<1x3x32x32xf32>\n  %12 = \"tfl.mul\"(%11, %5) <{fused_activation_function = \"NONE\"}> : (tensor<1x3x32x32xf32>, tensor<1xf32>) -> tensor<1x3x32x32xf32>\n  %13 = \"tfl.add\"(%12, %12) <{fused_activation_function = \"NONE\"}> : (tensor<1x3x32x32xf32>, tensor<1x3x32x32xf32>) -> tensor<1x3x32x32xf32>\n  %14 = \"tfl.mul\"(%13, %0) <{fused_activation_function = \"NONE\"}> : (tensor<1x3x32x32xf32>, tensor<1xf32>) -> tensor<1x3x32x32xf32>\n  %15 = \"tfl.mul\"(%14, %14) <{fused_activation_function = \"NONE\"}> : (tensor<1x3x32x32xf32>, tensor<1x3x32x32xf32>) -> tensor<1x3x32x32xf32>\n  %16 = \"tfl.mean\"(%15, %9) <{keep_dims = true}> : (tensor<1x3x32x32xf32>, tensor<1xi32>) -> tensor<1x3x32x1xf32>\n  %17 = \"tfl.add\"(%16, %7) <{fused_activation_function = \"NONE\"}> : (tensor<1x3x32x1xf32>, tensor<1xf32>) -> tensor<1x3x32x1xf32>\n  %18 = \"tfl.rsqrt\"(%17) : (tensor<1x3x32x1xf32>) -> tensor<1x3x32x1xf32>\n  %19 = \"tfl.mul\"(%14, %18) <{fused_activation_function = \"NONE\"}> : (tensor<1x3x32x32xf32>, tensor<1x3x32x1xf32>) -> tensor<1x3x32x32xf32>\n  %20 = \"tfl.mean\"(%19, %9) <{keep_dims = true}> : (tensor<1x3x32x32xf32>, tensor<1xi32>) -> tensor<1x3x32x1xf32>\n  %21 = \"tfl.sub\"(%19, %20) <{fused_activation_function = \"NONE\"}> : (tensor<1x3x32x32xf32>, tensor<1x3x32x1xf32>) -> tensor<1x3x32x32xf32>\n  %22 = \"tfl.mul\"(%21, %21) <{fused_activation_function = \"NONE\"}> : (tensor<1x3x32x32xf32>, tensor<1x3x32x32xf32>) -> tensor<1x3x32x32xf32>\n  %23 = \"tfl.mean\"(%22, %9) <{keep_dims = true}> : (tensor<1x3x32x32xf32>, tensor<1xi32>) -> tensor<1x3x32x1xf32>\n  %24 = \"tfl.add\"(%23, %8) <{fused_activation_function = \"NONE\"}> : (tensor<1x3x32x1xf32>, tensor<1xf32>) -> tensor<1x3x32x1xf32>\n  %25 = \"tfl.sqrt\"(%24) : (tensor<1x3x32x1xf32>) -> tensor<1x3x32x1xf32>\n  %26 = \"tfl.div\"(%21, %25) <{fused_activation_function = \"NONE\"}> : (tensor<1x3x32x32xf32>, tensor<1x3x32x1xf32>) -> tensor<1x3x32x32xf32>\n  %27 = \"tfl.mul\"(%26, %4) <{fused_activation_function = \"NONE\"}> : (tensor<1x3x32x32xf32>, tensor<1x1x1x1xf32>) -> tensor<1x3x32x32xf32>\n  %28 = \"tfl.mean\"(%27, %10) <{keep_dims = true}> : (tensor<1x3x32x32xf32>, tensor<2xi32>) -> tensor<1x3x1x1xf32>\n  %29 = \"tfl.mul\"(%27, %28) <{fused_activation_function = \"NONE\"}> : (tensor<1x3x32x32xf32>, tensor<1x3x1x1xf32>) -> tensor<1x3x32x32xf32>\n  %30 = \"tfl.mul\"(%29, %3) <{fused_activation_function = \"NONE\"}> : (tensor<1x3x32x32xf32>, tensor<1x3x1x1xf32>) -> tensor<1x3x32x32xf32>\n  %31 = \"tfl.transpose\"(%30, %2) : (tensor<1x3x32x32xf32>, tensor<4xi32>) -> tensor<1x32x32x3xf32>\n  %32 = \"tf.MaxPool\"(%31) <{data_format = \"NHWC\", explicit_paddings = [0, 0, 1, 1, 1, 1, 0, 0], ksize = [1, 3, 3, 1], padding = \"EXPLICIT\", strides = [1, 1, 1, 1]}> {device = \"\"} : (tensor<1x32x32x3xf32>) -> tensor<1x32x32x3xf32>\n  %33 = \"tfl.transpose\"(%32, %1) : (tensor<1x32x32x3xf32>, tensor<4xi32>) -> tensor<1x3x32x32xf32>\n  \"func.return\"(%33) : (tensor<1x3x32x32xf32>) -> ()\n}) {tf.entry_function = {control_outputs = \"\", inputs = \"input\", outputs = \"Identity\"}} : () -> ()\n"
  },
  "pattern_sequence": [
    [
      "branch",
      "residual_add_relu"
    ],
    [
      "constant",
      "div_by_constant"
    ],
    [
      "normalization",
      "rmsnorm"
    ],
    [
      "normalization",
      "variance_whitening"
    ],
    [
      "normalization",
      "spatial_reduce_mean"
    ],
    [
      "layout",
      "dilated_max_pool"
    ]
  ],
  "input_shape": [
    1,
    3,
    32,
    32
  ]
}