{
  "bug_id": "bug_0009",
  "sig": "296eb57e61ce",
  "compiler_class": "tflite",
  "affected_compilers": [
    "tflite",
    "tvm",
    "xla"
  ],
  "total_score": 5.0,
  "input_shape": [
    1,
    3,
    32,
    32
  ],
  "pattern_sequence": [
    [
      "fusion",
      "conv_transpose_bn_relu"
    ],
    [
      "broadcast",
      "swish"
    ],
    [
      "broadcast",
      "abs_neg_relu"
    ],
    [
      "fusion",
      "conv_relu_conv_bn"
    ],
    [
      "broadcast",
      "clipped_affine"
    ],
    [
      "normalization",
      "variance_whitening"
    ]
  ],
  "delta_opt": {
    "xla": 0.0,
    "tvm": 0.0,
    "tflite": 0.0
  },
  "crashes": [
    "xla+opt",
    "xla-opt",
    "tvm+opt",
    "tvm-opt",
    "tflite+opt",
    "tflite-opt"
  ],
  "errors": {
    "xla+opt": "conv_general_dilated lhs feature dimension size divided by feature_group_count must equal the rhs input feature dimension size, but 3 // 1 != 256.",
    "xla-opt": "conv_general_dilated lhs feature dimension size divided by feature_group_count must equal the rhs input feature dimension size, but 3 // 1 != 256.",
    "tvm+opt": "conv_general_dilated lhs feature dimension size divided by feature_group_count must equal the rhs input feature dimension size, but 3 // 1 != 256.",
    "tvm-opt": "conv_general_dilated lhs feature dimension size divided by feature_group_count must equal the rhs input feature dimension size, but 3 // 1 != 256.",
    "tflite+opt": "Could not translate MLIR to FlatBuffer./home/binduan/myspace/trion/trion/oracle/_onnx_ops.py:319:1: error: 'tf.Conv2DBackpropInput' op is neither a custom op nor a flex op\n    if op == \"ConvTranspose\":\n^\n/home/binduan/miniconda3/lib/python3.13/site-packages/tensorflow/python/autograph/operators/control_flow.py:1217:1: note: called from\n    _py_if_stmt(cond, body, orelse)\n^\n/home/binduan/miniconda3/lib/python3.13/site-packages/tensorflow/python/autograph/operators/control_flow.py:1270:1: note: called from\n  return body() if cond else orelse()\n^\n/home/binduan/myspace/trion/trion/oracle/_onnx_ops.py:320:1: note: called from\n        return _conv_transpose(node, get, F)\n^\n/home/binduan/myspace/trion/trion/oracle/_onnx_ops.py:527:1: note: called from\n    if _is_jax_module(F):\n^\n/home/binduan/miniconda3/lib/python3.13/site-packages/tensorflow/python/autograph/operators/control_flow.py:1217:1: note: called from\n    _py_if_stmt(cond, body, orelse)\n^\n/home/binduan/miniconda3/lib/python3.13/site-packages/tensorflow/python/autograph/operators/control_flow.py:1270:1: note: called from\n  return body() if cond else orelse()\n^\n/home/binduan/myspace/trion/trion/oracle/_onnx_ops.py:552:1: note: called from\n        y_nhwc = tf.nn.conv2d_transpose(\n^\n/home/binduan/miniconda3/lib/python3.13/site-packages/tensorflow/python/util/traceback_utils.py:164:1: note: called from\n      return fn(*args, **kwargs)\n^\n/home/binduan/miniconda3/lib/python3.13/site-packages/tensorflow/python/util/dispatch.py:1264:1: note: called from\n        return dispatch_target(*args, **kwargs)\n^\n/home/binduan/myspace/trion/trion/oracle/_onnx_ops.py:319:1: note: see current operation: %16 = \"tf.Conv2DBackpropInput\"(%3, %8, %15) <{data_format = \"NHWC\", dilations = [1, 1, 1, 1], explicit_paddings = [0, 0, 0, 0, 0, 0, 0, 0], padding = \"EXPLICIT\", strides = [1, 4, 4, 1], use_cudnn_on_gpu = true}> {device = \"\"} : (tensor<4xi32>, tensor<4x4x256x3xf32>, tensor<1x32x32x3xf32>) -> tensor<1x128x128x256xf32>\n    if op == \"ConvTranspose\":\n^\n/home/binduan/myspace/trion/trion/oracle/_onnx_ops.py:319:1: note: Error code: ERROR_NEEDS_FLEX_OPS\n<unknown>:0: error: failed while converting: 'main': \nSome ops are not supported by the native TFLite runtime, you can enable TF kernels fallback using TF Select. See instructions: https://www.tensorflow.org/lite/guide/ops_select \nTF Select ops: Conv2DBackpropInput\nDetails:\n\ttf.Conv2DBackpropInput(tensor<4xi32>, tensor<4x4x256x3xf32>, tensor<1x32x32x3xf32>) -> (tensor<1x128x128x256xf32>) : {data_format = \"NHWC\", device = \"\", dilations = [1, 1, 1, 1], explicit_paddings = [0, 0, 0, 0, 0, 0, 0, 0], padding = \"EXPLICIT\", strides = [1, 4, 4, 1], use_cudnn_on_gpu = true}\n\n<unknown>:0: note: see current operation: \n\"func.func\"() <{function_type = (tensor<1x3x32x32xf32>) -> tensor<1x64x128x128xf32>, sym_name = \"main\"}> ({\n^bb0(%arg0: tensor<1x3x32x32xf32>):\n  %0 = \"arith.constant\"() <{value = dense<-1> : tensor<1xi32>}> : () -> tensor<1xi32>\n  %1 = \"arith.constant\"() <{value = dense<9.99999974E-6> : tensor<1xf32>}> : () -> tensor<1xf32>\n  %2 = \"arith.constant\"() <{value = dense<-0.514438391> : tensor<1xf32>}> : () -> tensor<1xf32>\n  %3 = \"arith.constant\"() <{value = dense<[1, 128, 128, 256]> : tensor<4xi32>}> : () -> tensor<4xi32>\n  %4 = \"arith.constant\"() <{value = dense_resource<__elided__> : tensor<1x256x128x128xf32>}> : () -> tensor<1x256x128x128xf32>\n  %5 = \"arith.constant\"() <{value = dense<0.64615041> : tensor<1xf32>}> : () -> tensor<1xf32>\n  %6 = \"arith.constant\"() <{value = dense<0.798485338> : tensor<1x1x1x1xf32>}> : () -> tensor<1x1x1x1xf32>\n  %7 = \"arith.constant\"() <{value = dense<[0, 3, 1, 2]> : tensor<4xi32>}> : () -> tensor<4xi32>\n  %8 = \"arith.constant\"() <{value = dense_resource<__elided__> : tensor<4x4x256x3xf32>}> : () -> tensor<4x4x256x3xf32>\n  %9 = \"arith.constant\"() <{value = dense<[0, 2, 3, 1]> : tensor<4xi32>}> : () -> tensor<4xi32>\n  %10 = \"arith.constant\"() <{value = dense<0.000000e+00> : tensor<256xf32>}> : () -> tensor<256xf32>\n  %11 = \"arith.constant\"() <{value = dense<0.999994933> : tensor<1x1x1x256xf32>}> : () -> tensor<1x1x1x256xf32>\n  %12 = \"arith.constant\"() <{value = dense<0.000000e+00> : tensor<64xf32>}> : () -> tensor<64xf32>\n  %13 = \"tfl.pseudo_qconst\"() <{qtype = tensor<64x1x1x256x!quant.uniform<i8<-127:127>:f32:0, {… >>, value = dense_resource<__elided__> : tensor<64x1x1x256xi8>}> : () -> tensor<64x1x1x256x!quant.uniform<i8<-127:127>:f32:0, {… >>\n  %14 = \"tfl.pseudo_qconst\"() <{qtype = tensor<256x3x3x256x!quant.uniform<i8<-127:127>:f32:0, {… >>, value = dense_resource<__elided__> : tensor<256x3x3x256xi8>}> : () -> tensor<256x3x3x256x!quant.uniform<i8<-127:127>:f32:0, {… >>\n  %15 = \"tfl.transpose\"(%arg0, %9) : (tensor<1x3x32x32xf32>, tensor<4xi32>) -> tensor<1x32x32x3xf32>\n  %16 = \"tf.Conv2DBackpropInput\"(%3, %8, %15) <{data_format = \"NHWC\", dilations = [1, 1, 1, 1], explicit_paddings = [0, 0, 0, 0, 0, 0, 0, 0], padding = \"EXPLICIT\", strides = [1, 4, 4, 1], use_cudnn_on_gpu = true}> {device = \"\"} : (tensor<4xi32>, tensor<4x4x256x3xf32>, tensor<1x32x32x3xf32>) -> tensor<1x128x128x256xf32>\n  %17 = \"tfl.mul\"(%16, %11) <{fused_activation_function = \"RELU\"}> : (tensor<1x128x128x256xf32>, tensor<1x1x1x256xf32>) -> tensor<1x128x128x256xf32>\n  %18 = \"tfl.transpose\"(%17, %7) : (tensor<1x128x128x256xf32>, tensor<4xi32>) -> tensor<1x256x128x128xf32>\n  %19 = \"tfl.logistic\"(%18) : (tensor<1x256x128x128xf32>) -> tensor<1x256x128x128xf32>\n  %20 = \"tfl.mul\"(%18, %19) <{fused_activation_function = \"NONE\"}> : (tensor<1x256x128x128xf32>, tensor<1x256x128x128xf32>) -> tensor<1x256x128x128xf32>\n  %21 = \"tfl.abs\"(%20) : (tensor<1x256x128x128xf32>) -> tensor<1x256x128x128xf32>\n  %22 = \"tfl.neg\"(%21) : (tensor<1x256x128x128xf32>) -> tensor<1x256x128x128xf32>\n  %23 = \"tfl.relu\"(%22) : (tensor<1x256x128x128xf32>) -> tensor<1x256x128x128xf32>\n  %24 = \"tfl.mul\"(%23, %4) <{fused_activation_function = \"NONE\"}> : (tensor<1x256x128x128xf32>, tensor<1x256x128x128xf32>) -> tensor<1x256x128x128xf32>\n  %25 = \"tfl.transpose\"(%24, %9) : (tensor<1x256x128x128xf32>, tensor<4xi32>) -> tensor<1x128x128x256xf32>\n  %26 = \"tfl.conv_2d\"(%25, %14, %10) <{dilation_h_factor = 1 : i32, dilation_w_factor = 1 : i32, fused_activation_function = \"RELU\", padding = \"SAME\", stride_h = 1 : i32, stride_w = 1 : i32}> : (tensor<1x128x128x256xf32>, tensor<256x3x3x256x!quant.uniform<i8<-127:127>:f32:0, {… >>, tensor<256xf32>) -> tensor<1x128x128x256xf32>\n  %27 = \"tfl.conv_2d\"(%26, %13, %12) <{dilation_h_factor = 1 : i32, dilation_w_factor = 1 : i32, fused_activation_function = \"NONE\", padding = \"VALID\", stride_h = 1 : i32, stride_w = 1 : i32}> : (tensor<1x128x128x256xf32>, tensor<64x1x1x256x!quant.uniform<i8<-127:127>:f32:0, {… >>, tensor<64xf32>) -> tensor<1x128x128x64xf32>\n  %28 = \"tfl.transpose\"(%27, %7) : (tensor<1x128x128x64xf32>, tensor<4xi32>) -> tensor<1x64x128x128xf32>\n  %29 = \"tfl.mul\"(%28, %5) <{fused_activation_function = \"NONE\"}> : (tensor<1x64x128x128xf32>, tensor<1xf32>) -> tensor<1x64x128x128xf32>\n  %30 = \"tfl.add\"(%29, %2) <{fused_activation_function = \"RELU_N1_TO_1\"}> : (tensor<1x64x128x128xf32>, tensor<1xf32>) -> tensor<1x64x128x128xf32>\n  %31 = \"tfl.mean\"(%30, %0) <{keep_dims = true}> : (tensor<1x64x128x128xf32>, tensor<1xi32>) -> tensor<1x64x128x1xf32>\n  %32 = \"tfl.sub\"(%30, %31) <{fused_activation_function = \"NONE\"}> : (tensor<1x64x128x128xf32>, tensor<1x64x128x1xf32>) -> tensor<1x64x128x128xf32>\n  %33 = \"tfl.mul\"(%32, %32) <{fused_activation_function = \"NONE\"}> : (tensor<1x64x128x128xf32>, tensor<1x64x128x128xf32>) -> tensor<1x64x128x128xf32>\n  %34 = \"tfl.mean\"(%33, %0) <{keep_dims = true}> : (tensor<1x64x128x128xf32>, tensor<1xi32>) -> tensor<1x64x128x1xf32>\n  %35 = \"tfl.add\"(%34, %1) <{fused_activation_function = \"NONE\"}> : (tensor<1x64x128x1xf32>, tensor<1xf32>) -> tensor<1x64x128x1xf32>\n  %36 = \"tfl.sqrt\"(%35) : (tensor<1x64x128x1xf32>) -> tensor<1x64x128x1xf32>\n  %37 = \"tfl.div\"(%32, %36) <{fused_activation_function = \"NONE\"}> : (tensor<1x64x128x128xf32>, tensor<1x64x128x1xf32>) -> tensor<1x64x128x128xf32>\n  %38 = \"tfl.mul\"(%37, %6) <{fused_activation_function = \"NONE\"}> : (tensor<1x64x128x128xf32>, tensor<1x1x1x1xf32>) -> tensor<1x64x128x128xf32>\n  \"func.return\"(%38) : (tensor<1x64x128x128xf32>) -> ()\n}) {tf.entry_function = {control_outputs = \"\", inputs = \"input\", outputs = \"Identity\"}} : () -> ()\n",
    "tflite-opt": "Could not translate MLIR to FlatBuffer./home/binduan/myspace/trion/trion/oracle/_onnx_ops.py:319:1: error: 'tf.Conv2DBackpropInput' op is neither a custom op nor a flex op\n    if op == \"ConvTranspose\":\n^\n/home/binduan/miniconda3/lib/python3.13/site-packages/tensorflow/python/autograph/operators/control_flow.py:1217:1: note: called from\n    _py_if_stmt(cond, body, orelse)\n^\n/home/binduan/miniconda3/lib/python3.13/site-packages/tensorflow/python/autograph/operators/control_flow.py:1270:1: note: called from\n  return body() if cond else orelse()\n^\n/home/binduan/myspace/trion/trion/oracle/_onnx_ops.py:320:1: note: called from\n        return _conv_transpose(node, get, F)\n^\n/home/binduan/myspace/trion/trion/oracle/_onnx_ops.py:527:1: note: called from\n    if _is_jax_module(F):\n^\n/home/binduan/miniconda3/lib/python3.13/site-packages/tensorflow/python/autograph/operators/control_flow.py:1217:1: note: called from\n    _py_if_stmt(cond, body, orelse)\n^\n/home/binduan/miniconda3/lib/python3.13/site-packages/tensorflow/python/autograph/operators/control_flow.py:1270:1: note: called from\n  return body() if cond else orelse()\n^\n/home/binduan/myspace/trion/trion/oracle/_onnx_ops.py:552:1: note: called from\n        y_nhwc = tf.nn.conv2d_transpose(\n^\n/home/binduan/miniconda3/lib/python3.13/site-packages/tensorflow/python/util/traceback_utils.py:164:1: note: called from\n      return fn(*args, **kwargs)\n^\n/home/binduan/miniconda3/lib/python3.13/site-packages/tensorflow/python/util/dispatch.py:1264:1: note: called from\n        return dispatch_target(*args, **kwargs)\n^\n/home/binduan/myspace/trion/trion/oracle/_onnx_ops.py:319:1: note: see current operation: %16 = \"tf.Conv2DBackpropInput\"(%11, %6, %15) <{data_format = \"NHWC\", dilations = [1, 1, 1, 1], explicit_paddings = [0, 0, 0, 0, 0, 0, 0, 0], padding = \"EXPLICIT\", strides = [1, 4, 4, 1], use_cudnn_on_gpu = true}> {device = \"\"} : (tensor<4xi32>, tensor<4x4x256x3xf32>, tensor<1x32x32x3xf32>) -> tensor<1x128x128x256xf32>\n    if op == \"ConvTranspose\":\n^\n/home/binduan/myspace/trion/trion/oracle/_onnx_ops.py:319:1: note: Error code: ERROR_NEEDS_FLEX_OPS\n<unknown>:0: error: failed while converting: 'main': \nSome ops are not supported by the native TFLite runtime, you can enable TF kernels fallback using TF Select. See instructions: https://www.tensorflow.org/lite/guide/ops_select \nTF Select ops: Conv2DBackpropInput\nDetails:\n\ttf.Conv2DBackpropInput(tensor<4xi32>, tensor<4x4x256x3xf32>, tensor<1x32x32x3xf32>) -> (tensor<1x128x128x256xf32>) : {data_format = \"NHWC\", device = \"\", dilations = [1, 1, 1, 1], explicit_paddings = [0, 0, 0, 0, 0, 0, 0, 0], padding = \"EXPLICIT\", strides = [1, 4, 4, 1], use_cudnn_on_gpu = true}\n\n<unknown>:0: note: see current operation: \n\"func.func\"() <{function_type = (tensor<1x3x32x32xf32>) -> tensor<1x64x128x128xf32>, sym_name = \"main\"}> ({\n^bb0(%arg0: tensor<1x3x32x32xf32>):\n  %0 = \"arith.constant\"() <{value = dense<0.000000e+00> : tensor<64xf32>}> : () -> tensor<64xf32>\n  %1 = \"arith.constant\"() <{value = dense_resource<__elided__> : tensor<64x1x1x256xf32>}> : () -> tensor<64x1x1x256xf32>\n  %2 = \"arith.constant\"() <{value = dense<0.999994933> : tensor<1x1x1x256xf32>}> : () -> tensor<1x1x1x256xf32>\n  %3 = \"arith.constant\"() <{value = dense_resource<__elided__> : tensor<256x3x3x256xf32>}> : () -> tensor<256x3x3x256xf32>\n  %4 = \"arith.constant\"() <{value = dense<0.000000e+00> : tensor<256xf32>}> : () -> tensor<256xf32>\n  %5 = \"arith.constant\"() <{value = dense<[0, 2, 3, 1]> : tensor<4xi32>}> : () -> tensor<4xi32>\n  %6 = \"arith.constant\"() <{value = dense_resource<__elided__> : tensor<4x4x256x3xf32>}> : () -> tensor<4x4x256x3xf32>\n  %7 = \"arith.constant\"() <{value = dense<[0, 3, 1, 2]> : tensor<4xi32>}> : () -> tensor<4xi32>\n  %8 = \"arith.constant\"() <{value = dense<0.798485338> : tensor<1x1x1x1xf32>}> : () -> tensor<1x1x1x1xf32>\n  %9 = \"arith.constant\"() <{value = dense<0.64615041> : tensor<1xf32>}> : () -> tensor<1xf32>\n  %10 = \"arith.constant\"() <{value = dense_resource<__elided__> : tensor<1x256x128x128xf32>}> : () -> tensor<1x256x128x128xf32>\n  %11 = \"arith.constant\"() <{value = dense<[1, 128, 128, 256]> : tensor<4xi32>}> : () -> tensor<4xi32>\n  %12 = \"arith.constant\"() <{value = dense<-0.514438391> : tensor<1xf32>}> : () -> tensor<1xf32>\n  %13 = \"arith.constant\"() <{value = dense<9.99999974E-6> : tensor<1xf32>}> : () -> tensor<1xf32>\n  %14 = \"arith.constant\"() <{value = dense<-1> : tensor<1xi32>}> : () -> tensor<1xi32>\n  %15 = \"tfl.transpose\"(%arg0, %5) : (tensor<1x3x32x32xf32>, tensor<4xi32>) -> tensor<1x32x32x3xf32>\n  %16 = \"tf.Conv2DBackpropInput\"(%11, %6, %15) <{data_format = \"NHWC\", dilations = [1, 1, 1, 1], explicit_paddings = [0, 0, 0, 0, 0, 0, 0, 0], padding = \"EXPLICIT\", strides = [1, 4, 4, 1], use_cudnn_on_gpu = true}> {device = \"\"} : (tensor<4xi32>, tensor<4x4x256x3xf32>, tensor<1x32x32x3xf32>) -> tensor<1x128x128x256xf32>\n  %17 = \"tfl.mul\"(%16, %2) <{fused_activation_function = \"RELU\"}> : (tensor<1x128x128x256xf32>, tensor<1x1x1x256xf32>) -> tensor<1x128x128x256xf32>\n  %18 = \"tfl.transpose\"(%17, %7) : (tensor<1x128x128x256xf32>, tensor<4xi32>) -> tensor<1x256x128x128xf32>\n  %19 = \"tfl.logistic\"(%18) : (tensor<1x256x128x128xf32>) -> tensor<1x256x128x128xf32>\n  %20 = \"tfl.mul\"(%18, %19) <{fused_activation_function = \"NONE\"}> : (tensor<1x256x128x128xf32>, tensor<1x256x128x128xf32>) -> tensor<1x256x128x128xf32>\n  %21 = \"tfl.abs\"(%20) : (tensor<1x256x128x128xf32>) -> tensor<1x256x128x128xf32>\n  %22 = \"tfl.neg\"(%21) : (tensor<1x256x128x128xf32>) -> tensor<1x256x128x128xf32>\n  %23 = \"tfl.relu\"(%22) : (tensor<1x256x128x128xf32>) -> tensor<1x256x128x128xf32>\n  %24 = \"tfl.mul\"(%23, %10) <{fused_activation_function = \"NONE\"}> : (tensor<1x256x128x128xf32>, tensor<1x256x128x128xf32>) -> tensor<1x256x128x128xf32>\n  %25 = \"tfl.transpose\"(%24, %5) : (tensor<1x256x128x128xf32>, tensor<4xi32>) -> tensor<1x128x128x256xf32>\n  %26 = \"tfl.conv_2d\"(%25, %3, %4) <{dilation_h_factor = 1 : i32, dilation_w_factor = 1 : i32, fused_activation_function = \"RELU\", padding = \"SAME\", stride_h = 1 : i32, stride_w = 1 : i32}> : (tensor<1x128x128x256xf32>, tensor<256x3x3x256xf32>, tensor<256xf32>) -> tensor<1x128x128x256xf32>\n  %27 = \"tfl.conv_2d\"(%26, %1, %0) <{dilation_h_factor = 1 : i32, dilation_w_factor = 1 : i32, fused_activation_function = \"NONE\", padding = \"VALID\", stride_h = 1 : i32, stride_w = 1 : i32}> : (tensor<1x128x128x256xf32>, tensor<64x1x1x256xf32>, tensor<64xf32>) -> tensor<1x128x128x64xf32>\n  %28 = \"tfl.transpose\"(%27, %7) : (tensor<1x128x128x64xf32>, tensor<4xi32>) -> tensor<1x64x128x128xf32>\n  %29 = \"tfl.mul\"(%28, %9) <{fused_activation_function = \"NONE\"}> : (tensor<1x64x128x128xf32>, tensor<1xf32>) -> tensor<1x64x128x128xf32>\n  %30 = \"tfl.add\"(%29, %12) <{fused_activation_function = \"RELU_N1_TO_1\"}> : (tensor<1x64x128x128xf32>, tensor<1xf32>) -> tensor<1x64x128x128xf32>\n  %31 = \"tfl.mean\"(%30, %14) <{keep_dims = true}> : (tensor<1x64x128x128xf32>, tensor<1xi32>) -> tensor<1x64x128x1xf32>\n  %32 = \"tfl.sub\"(%30, %31) <{fused_activation_function = \"NONE\"}> : (tensor<1x64x128x128xf32>, tensor<1x64x128x1xf32>) -> tensor<1x64x128x128xf32>\n  %33 = \"tfl.mul\"(%32, %32) <{fused_activation_function = \"NONE\"}> : (tensor<1x64x128x128xf32>, tensor<1x64x128x128xf32>) -> tensor<1x64x128x128xf32>\n  %34 = \"tfl.mean\"(%33, %14) <{keep_dims = true}> : (tensor<1x64x128x128xf32>, tensor<1xi32>) -> tensor<1x64x128x1xf32>\n  %35 = \"tfl.add\"(%34, %13) <{fused_activation_function = \"NONE\"}> : (tensor<1x64x128x1xf32>, tensor<1xf32>) -> tensor<1x64x128x1xf32>\n  %36 = \"tfl.sqrt\"(%35) : (tensor<1x64x128x1xf32>) -> tensor<1x64x128x1xf32>\n  %37 = \"tfl.div\"(%32, %36) <{fused_activation_function = \"NONE\"}> : (tensor<1x64x128x128xf32>, tensor<1x64x128x1xf32>) -> tensor<1x64x128x128xf32>\n  %38 = \"tfl.mul\"(%37, %8) <{fused_activation_function = \"NONE\"}> : (tensor<1x64x128x128xf32>, tensor<1x1x1x1xf32>) -> tensor<1x64x128x128xf32>\n  \"func.return\"(%38) : (tensor<1x64x128x128xf32>) -> ()\n}) {tf.entry_function = {control_outputs = \"\", inputs = \"input\", outputs = \"Identity\"}} : () -> ()\n"
  }
}