{
  "compiler_class": "tflite",
  "affected_compilers": [
    "tflite"
  ],
  "total_score": 1.0,
  "input_shape": [
    1,
    3,
    32,
    32
  ],
  "pattern_sequence": [
    [
      "branch",
      "spatial_attention_cbam"
    ],
    [
      "layout",
      "dilated_max_pool"
    ],
    [
      "layout",
      "reshape_batched_matmul"
    ],
    [
      "broadcast",
      "abs_neg_relu"
    ],
    [
      "branch",
      "glu"
    ],
    [
      "fusion",
      "matmul_bias_sigmoid"
    ]
  ],
  "delta_opt": {
    "tensorflow": 5.960464477539063e-08
  },
  "crashes": [
    "tflite+opt",
    "tflite-opt"
  ],
  "errors": {
    "tflite+opt": "Could not translate MLIR to FlatBuffer./home/binduan/myspace/trion/trion/oracle/_onnx_ops.py:358:1: error: 'tf.ExtractImagePatches' op is neither a custom op nor a flex op\n        return _pool(node, get, F)\n^\n/home/binduan/myspace/trion/trion/oracle/_onnx_ops.py:590:1: note: called from\n    if _is_jax_module(F):\n^\n/home/binduan/miniconda3/lib/python3.13/site-packages/tensorflow/python/autograph/operators/control_flow.py:1217:1: note: called from\n    _py_if_stmt(cond, body, orelse)\n^\n/home/binduan/miniconda3/lib/python3.13/site-packages/tensorflow/python/autograph/operators/control_flow.py:1270:1: note: called from\n  return body() if cond else orelse()\n^\n/home/binduan/myspace/trion/trion/oracle/_onnx_ops.py:625:1: note: called from\n        if op == \"MaxPool\" and (dH > 1 or dW > 1):\n^\n/home/binduan/miniconda3/lib/python3.13/site-packages/tensorflow/python/autograph/operators/control_flow.py:1217:1: note: called from\n    _py_if_stmt(cond, body, orelse)\n^\n/home/binduan/miniconda3/lib/python3.13/site-packages/tensorflow/python/autograph/operators/control_flow.py:1270:1: note: called from\n  return body() if cond else orelse()\n^\n/home/binduan/myspace/trion/trion/oracle/_onnx_ops.py:632:1: note: called from\n            patches = tf.image.extract_patches(\n^\n/home/binduan/miniconda3/lib/python3.13/site-packages/tensorflow/python/ops/weak_tensor_ops.py:88:1: note: called from\n      return op(*args, **kwargs)\n^\n/home/binduan/miniconda3/lib/python3.13/site-packages/tensorflow/python/util/traceback_utils.py:164:1: note: called from\n      return fn(*args, **kwargs)\n^\n/home/binduan/myspace/trion/trion/oracle/_onnx_ops.py:358:1: note: see current operation: %27 = \"tf.ExtractImagePatches\"(%26) <{ksizes = [1, 3, 3, 1], padding = \"VALID\", rates = [1, 2, 2, 1], strides = [1, 1, 1, 1]}> {device = \"\"} : (tensor<1x34x34x3xf32>) -> tensor<1x30x30x27xf32>\n        return _pool(node, get, F)\n^\n/home/binduan/myspace/trion/trion/oracle/_onnx_ops.py:358:1: note: Error code: ERROR_NEEDS_FLEX_OPS\n<unknown>:0: error: failed while converting: 'main': \nSome ops are not supported by the native TFLite runtime, you can enable TF kernels fallback using TF Select. See instructions: https://www.tensorflow.org/lite/guide/ops_select \nTF Select ops: ExtractImagePatches\nDetails:\n\ttf.ExtractImagePatches(tensor<1x34x34x3xf32>) -> (tensor<1x30x30x27xf32>) : {device = \"\", ksizes = [1, 3, 3, 1], padding = \"VALID\", rates = [1, 2, 2, 1], strides = [1, 1, 1, 1]}\n\n<unknown>:0: note: see current operation: \n\"func.func\"() <{function_type = (tensor<1x3x32x32xf32>) -> tensor<1x64xf32>, sym_name = \"main\"}> ({\n^bb0(%arg0: tensor<1x3x32x32xf32>):\n  %0 = \"arith.constant\"() <{value = dense<[[0, 0], [1, 1], [1, 1], [0, 0]]> : tensor<4x2xi32>}> : () -> tensor<4x2xi32>\n  %1 = \"arith.constant\"() <{value = dense<-1.000000e+09> : tensor<f32>}> : () -> tensor<f32>\n  %2 = \"arith.constant\"() <{value = dense<3> : tensor<i32>}> : () -> tensor<i32>\n  %3 = \"arith.constant\"() <{value = dense<1> : tensor<1xi32>}> : () -> tensor<1xi32>\n  %4 = \"arith.constant\"() <{value = dense<32> : tensor<2xi32>}> : () -> tensor<2xi32>\n  %5 = \"arith.constant\"() <{value = dense<[-1, 30, 30, 9, 3]> : tensor<5xi32>}> : () -> tensor<5xi32>\n  %6 = \"arith.constant\"() <{value = dense<[1, 2700]> : tensor<2xi32>}> : () -> tensor<2xi32>\n  %7 = \"arith.constant\"() <{value = dense_resource<__elided__> : tensor<1x64xf32>}> : () -> tensor<1x64xf32>\n  %8 = \"arith.constant\"() <{value = dense<-1> : tensor<i32>}> : () -> tensor<i32>\n  %9 = \"arith.constant\"() <{value = dense<[0, 2, 3, 1]> : tensor<4xi32>}> : () -> tensor<4xi32>\n  %10 = \"arith.constant\"() <{value = dense<[0, 3, 1, 2]> : tensor<4xi32>}> : () -> tensor<4xi32>\n  %11 = \"arith.constant\"() <{value = dense<[1, 1, 32, 32]> : tensor<4xi32>}> : () -> tensor<4xi32>\n  %12 = \"tfl.no_value\"() <{value}> : () -> none\n  %13 = \"arith.constant\"() <{value = dense_resource<__elided__> : tensor<1x7x7x2xf32>}> : () -> tensor<1x7x7x2xf32>\n  %14 = \"arith.constant\"() <{value = dense<0.000000e+00> : tensor<1xf32>}> : () -> tensor<1xf32>\n  %15 = \"tfl.pseudo_qconst\"() <{qtype = tensor<64x32x!quant.uniform<i8<-127:127>:f32:0, {… >>, value = dense_resource<__elided__> : tensor<64x32xi8>}> : () -> tensor<64x32x!quant.uniform<i8<-127:127>:f32:0, {… >>\n  %16 = \"tfl.pseudo_qconst\"() <{qtype = tensor<64x2700x!quant.uniform<i8<-127:127>:f32:0, {… >>, value = dense_resource<__elided__> : tensor<64x2700xi8>}> : () -> tensor<64x2700x!quant.uniform<i8<-127:127>:f32:0, {… >>\n  %17 = \"tfl.reduce_max\"(%arg0, %3) <{keep_dims = true}> : (tensor<1x3x32x32xf32>, tensor<1xi32>) -> tensor<1x1x32x32xf32>\n  %18 = \"tfl.mean\"(%arg0, %3) <{keep_dims = true}> : (tensor<1x3x32x32xf32>, tensor<1xi32>) -> tensor<1x1x32x32xf32>\n  %19 = \"tfl.concatenation\"(%18, %17) <{axis = 1 : i32, fused_activation_function = \"NONE\"}> : (tensor<1x1x32x32xf32>, tensor<1x1x32x32xf32>) -> tensor<1x2x32x32xf32>\n  %20 = \"tfl.transpose\"(%19, %9) : (tensor<1x2x32x32xf32>, tensor<4xi32>) -> tensor<1x32x32x2xf32>\n  %21 = \"tfl.conv_2d\"(%20, %13, %14) <{dilation_h_factor = 1 : i32, dilation_w_factor = 1 : i32, fused_activation_function = \"NONE\", padding = \"SAME\", stride_h = 1 : i32, stride_w = 1 : i32}> : (tensor<1x32x32x2xf32>, tensor<1x7x7x2xf32>, tensor<1xf32>) -> tensor<1x32x32x1xf32>\n  %22 = \"tfl.logistic\"(%21) : (tensor<1x32x32x1xf32>) -> tensor<1x32x32x1xf32>\n  %23 = \"tfl.reshape\"(%22, %11) : (tensor<1x32x32x1xf32>, tensor<4xi32>) -> tensor<1x1x32x32xf32>\n  %24 = \"tfl.mul\"(%arg0, %23) <{fused_activation_function = \"NONE\"}> : (tensor<1x3x32x32xf32>, tensor<1x1x32x32xf32>) -> tensor<1x3x32x32xf32>\n  %25 = \"tfl.transpose\"(%24, %9) : (tensor<1x3x32x32xf32>, tensor<4xi32>) -> tensor<1x32x32x3xf32>\n  %26 = \"tfl.padv2\"(%25, %0, %1) : (tensor<1x32x32x3xf32>, tensor<4x2xi32>, tensor<f32>) -> tensor<1x34x34x3xf32>\n  %27 = \"tf.ExtractImagePatches\"(%26) <{ksizes = [1, 3, 3, 1], padding = \"VALID\", rates = [1, 2, 2, 1], strides = [1, 1, 1, 1]}> {device = \"\"} : (tensor<1x34x34x3xf32>) -> tensor<1x30x30x27xf32>\n  %28 = \"tfl.reshape\"(%27, %5) : (tensor<1x30x30x27xf32>, tensor<5xi32>) -> tensor<1x30x30x9x3xf32>\n  %29 = \"tfl.reduce_max\"(%28, %2) <{keep_dims = false}> : (tensor<1x30x30x9x3xf32>, tensor<i32>) -> tensor<1x30x30x3xf32>\n  %30 = \"tfl.transpose\"(%29, %10) : (tensor<1x30x30x3xf32>, tensor<4xi32>) -> tensor<1x3x30x30xf32>\n  %31 = \"tfl.reshape\"(%30, %6) : (tensor<1x3x30x30xf32>, tensor<2xi32>) -> tensor<1x2700xf32>\n  %32 = \"tfl.fully_connected\"(%31, %16, %12) <{asymmetric_quantize_inputs = true, fused_activation_function = \"NONE\", keep_num_dims = false, weights_format = \"DEFAULT\"}> : (tensor<1x2700xf32>, tensor<64x2700x!quant.uniform<i8<-127:127>:f32:0, {… >>, none) -> tensor<1x64xf32>\n  %33 = \"tfl.abs\"(%32) : (tensor<1x64xf32>) -> tensor<1x64xf32>\n  %34 = \"tfl.neg\"(%33) : (tensor<1x64xf32>) -> tensor<1x64xf32>\n  %35 = \"tfl.relu\"(%34) : (tensor<1x64xf32>) -> tensor<1x64xf32>\n  %36 = \"tfl.mul\"(%35, %7) <{fused_activation_function = \"NONE\"}> : (tensor<1x64xf32>, tensor<1x64xf32>) -> tensor<1x64xf32>\n  %37:2 = \"tfl.split_v\"(%36, %4, %8) <{num_splits = 2 : i32}> : (tensor<1x64xf32>, tensor<2xi32>, tensor<i32>) -> (tensor<1x32xf32>, tensor<1x32xf32>)\n  %38 = \"tfl.logistic\"(%37#1) : (tensor<1x32xf32>) -> tensor<1x32xf32>\n  %39 = \"tfl.mul\"(%37#0, %38) <{fused_activation_function = \"NONE\"}> : (tensor<1x32xf32>, tensor<1x32xf32>) -> tensor<1x32xf32>\n  %40 = \"tfl.fully_connected\"(%39, %15, %12) <{asymmetric_quantize_inputs = true, fused_activation_function = \"NONE\", keep_num_dims = false, weights_format = \"DEFAULT\"}> : (tensor<1x32xf32>, tensor<64x32x!quant.uniform<i8<-127:127>:f32:0, {… >>, none) -> tensor<1x64xf32>\n  %41 = \"tfl.logistic\"(%40) : (tensor<1x64xf32>) -> tensor<1x64xf32>\n  \"func.return\"(%41) : (tensor<1x64xf32>) -> ()\n}) {tf.entry_function = {control_outputs = \"\", inputs = \"input\", outputs = \"Identity_2\"}} : () -> ()\n",
    "tflite-opt": "Could not translate MLIR to FlatBuffer./home/binduan/myspace/trion/trion/oracle/_onnx_ops.py:358:1: error: 'tf.ExtractImagePatches' op is neither a custom op nor a flex op\n        return _pool(node, get, F)\n^\n/home/binduan/myspace/trion/trion/oracle/_onnx_ops.py:590:1: note: called from\n    if _is_jax_module(F):\n^\n/home/binduan/miniconda3/lib/python3.13/site-packages/tensorflow/python/autograph/operators/control_flow.py:1217:1: note: called from\n    _py_if_stmt(cond, body, orelse)\n^\n/home/binduan/miniconda3/lib/python3.13/site-packages/tensorflow/python/autograph/operators/control_flow.py:1270:1: note: called from\n  return body() if cond else orelse()\n^\n/home/binduan/myspace/trion/trion/oracle/_onnx_ops.py:625:1: note: called from\n        if op == \"MaxPool\" and (dH > 1 or dW > 1):\n^\n/home/binduan/miniconda3/lib/python3.13/site-packages/tensorflow/python/autograph/operators/control_flow.py:1217:1: note: called from\n    _py_if_stmt(cond, body, orelse)\n^\n/home/binduan/miniconda3/lib/python3.13/site-packages/tensorflow/python/autograph/operators/control_flow.py:1270:1: note: called from\n  return body() if cond else orelse()\n^\n/home/binduan/myspace/trion/trion/oracle/_onnx_ops.py:632:1: note: called from\n            patches = tf.image.extract_patches(\n^\n/home/binduan/miniconda3/lib/python3.13/site-packages/tensorflow/python/ops/weak_tensor_ops.py:88:1: note: called from\n      return op(*args, **kwargs)\n^\n/home/binduan/miniconda3/lib/python3.13/site-packages/tensorflow/python/util/traceback_utils.py:164:1: note: called from\n      return fn(*args, **kwargs)\n^\n/home/binduan/myspace/trion/trion/oracle/_onnx_ops.py:358:1: note: see current operation: %27 = \"tf.ExtractImagePatches\"(%26) <{ksizes = [1, 3, 3, 1], padding = \"VALID\", rates = [1, 2, 2, 1], strides = [1, 1, 1, 1]}> {device = \"\"} : (tensor<1x34x34x3xf32>) -> tensor<1x30x30x27xf32>\n        return _pool(node, get, F)\n^\n/home/binduan/myspace/trion/trion/oracle/_onnx_ops.py:358:1: note: Error code: ERROR_NEEDS_FLEX_OPS\n<unknown>:0: error: failed while converting: 'main': \nSome ops are not supported by the native TFLite runtime, you can enable TF kernels fallback using TF Select. See instructions: https://www.tensorflow.org/lite/guide/ops_select \nTF Select ops: ExtractImagePatches\nDetails:\n\ttf.ExtractImagePatches(tensor<1x34x34x3xf32>) -> (tensor<1x30x30x27xf32>) : {device = \"\", ksizes = [1, 3, 3, 1], padding = \"VALID\", rates = [1, 2, 2, 1], strides = [1, 1, 1, 1]}\n\n<unknown>:0: note: see current operation: \n\"func.func\"() <{function_type = (tensor<1x3x32x32xf32>) -> tensor<1x64xf32>, sym_name = \"main\"}> ({\n^bb0(%arg0: tensor<1x3x32x32xf32>):\n  %0 = \"arith.constant\"() <{value = dense<[1, 1, 32, 32]> : tensor<4xi32>}> : () -> tensor<4xi32>\n  %1 = \"tfl.no_value\"() <{value}> : () -> none\n  %2 = \"arith.constant\"() <{value = dense_resource<__elided__> : tensor<1x7x7x2xf32>}> : () -> tensor<1x7x7x2xf32>\n  %3 = \"arith.constant\"() <{value = dense<0.000000e+00> : tensor<1xf32>}> : () -> tensor<1xf32>\n  %4 = \"arith.constant\"() <{value = dense_resource<__elided__> : tensor<64x32xf32>}> : () -> tensor<64x32xf32>\n  %5 = \"arith.constant\"() <{value = dense_resource<__elided__> : tensor<64x2700xf32>}> : () -> tensor<64x2700xf32>\n  %6 = \"arith.constant\"() <{value = dense<[0, 3, 1, 2]> : tensor<4xi32>}> : () -> tensor<4xi32>\n  %7 = \"arith.constant\"() <{value = dense<[0, 2, 3, 1]> : tensor<4xi32>}> : () -> tensor<4xi32>\n  %8 = \"arith.constant\"() <{value = dense<-1> : tensor<i32>}> : () -> tensor<i32>\n  %9 = \"arith.constant\"() <{value = dense_resource<__elided__> : tensor<1x64xf32>}> : () -> tensor<1x64xf32>\n  %10 = \"arith.constant\"() <{value = dense<[1, 2700]> : tensor<2xi32>}> : () -> tensor<2xi32>\n  %11 = \"arith.constant\"() <{value = dense<[-1, 30, 30, 9, 3]> : tensor<5xi32>}> : () -> tensor<5xi32>\n  %12 = \"arith.constant\"() <{value = dense<32> : tensor<2xi32>}> : () -> tensor<2xi32>\n  %13 = \"arith.constant\"() <{value = dense<1> : tensor<1xi32>}> : () -> tensor<1xi32>\n  %14 = \"arith.constant\"() <{value = dense<3> : tensor<i32>}> : () -> tensor<i32>\n  %15 = \"arith.constant\"() <{value = dense<-1.000000e+09> : tensor<f32>}> : () -> tensor<f32>\n  %16 = \"arith.constant\"() <{value = dense<[[0, 0], [1, 1], [1, 1], [0, 0]]> : tensor<4x2xi32>}> : () -> tensor<4x2xi32>\n  %17 = \"tfl.reduce_max\"(%arg0, %13) <{keep_dims = true}> : (tensor<1x3x32x32xf32>, tensor<1xi32>) -> tensor<1x1x32x32xf32>\n  %18 = \"tfl.mean\"(%arg0, %13) <{keep_dims = true}> : (tensor<1x3x32x32xf32>, tensor<1xi32>) -> tensor<1x1x32x32xf32>\n  %19 = \"tfl.concatenation\"(%18, %17) <{axis = 1 : i32, fused_activation_function = \"NONE\"}> : (tensor<1x1x32x32xf32>, tensor<1x1x32x32xf32>) -> tensor<1x2x32x32xf32>\n  %20 = \"tfl.transpose\"(%19, %7) : (tensor<1x2x32x32xf32>, tensor<4xi32>) -> tensor<1x32x32x2xf32>\n  %21 = \"tfl.conv_2d\"(%20, %2, %3) <{dilation_h_factor = 1 : i32, dilation_w_factor = 1 : i32, fused_activation_function = \"NONE\", padding = \"SAME\", stride_h = 1 : i32, stride_w = 1 : i32}> : (tensor<1x32x32x2xf32>, tensor<1x7x7x2xf32>, tensor<1xf32>) -> tensor<1x32x32x1xf32>\n  %22 = \"tfl.logistic\"(%21) : (tensor<1x32x32x1xf32>) -> tensor<1x32x32x1xf32>\n  %23 = \"tfl.reshape\"(%22, %0) : (tensor<1x32x32x1xf32>, tensor<4xi32>) -> tensor<1x1x32x32xf32>\n  %24 = \"tfl.mul\"(%arg0, %23) <{fused_activation_function = \"NONE\"}> : (tensor<1x3x32x32xf32>, tensor<1x1x32x32xf32>) -> tensor<1x3x32x32xf32>\n  %25 = \"tfl.transpose\"(%24, %7) : (tensor<1x3x32x32xf32>, tensor<4xi32>) -> tensor<1x32x32x3xf32>\n  %26 = \"tfl.padv2\"(%25, %16, %15) : (tensor<1x32x32x3xf32>, tensor<4x2xi32>, tensor<f32>) -> tensor<1x34x34x3xf32>\n  %27 = \"tf.ExtractImagePatches\"(%26) <{ksizes = [1, 3, 3, 1], padding = \"VALID\", rates = [1, 2, 2, 1], strides = [1, 1, 1, 1]}> {device = \"\"} : (tensor<1x34x34x3xf32>) -> tensor<1x30x30x27xf32>\n  %28 = \"tfl.reshape\"(%27, %11) : (tensor<1x30x30x27xf32>, tensor<5xi32>) -> tensor<1x30x30x9x3xf32>\n  %29 = \"tfl.reduce_max\"(%28, %14) <{keep_dims = false}> : (tensor<1x30x30x9x3xf32>, tensor<i32>) -> tensor<1x30x30x3xf32>\n  %30 = \"tfl.transpose\"(%29, %6) : (tensor<1x30x30x3xf32>, tensor<4xi32>) -> tensor<1x3x30x30xf32>\n  %31 = \"tfl.reshape\"(%30, %10) : (tensor<1x3x30x30xf32>, tensor<2xi32>) -> tensor<1x2700xf32>\n  %32 = \"tfl.fully_connected\"(%31, %5, %1) <{fused_activation_function = \"NONE\", keep_num_dims = false, weights_format = \"DEFAULT\"}> : (tensor<1x2700xf32>, tensor<64x2700xf32>, none) -> tensor<1x64xf32>\n  %33 = \"tfl.abs\"(%32) : (tensor<1x64xf32>) -> tensor<1x64xf32>\n  %34 = \"tfl.neg\"(%33) : (tensor<1x64xf32>) -> tensor<1x64xf32>\n  %35 = \"tfl.relu\"(%34) : (tensor<1x64xf32>) -> tensor<1x64xf32>\n  %36 = \"tfl.mul\"(%35, %9) <{fused_activation_function = \"NONE\"}> : (tensor<1x64xf32>, tensor<1x64xf32>) -> tensor<1x64xf32>\n  %37:2 = \"tfl.split_v\"(%36, %12, %8) <{num_splits = 2 : i32}> : (tensor<1x64xf32>, tensor<2xi32>, tensor<i32>) -> (tensor<1x32xf32>, tensor<1x32xf32>)\n  %38 = \"tfl.logistic\"(%37#1) : (tensor<1x32xf32>) -> tensor<1x32xf32>\n  %39 = \"tfl.mul\"(%37#0, %38) <{fused_activation_function = \"NONE\"}> : (tensor<1x32xf32>, tensor<1x32xf32>) -> tensor<1x32xf32>\n  %40 = \"tfl.fully_connected\"(%39, %4, %1) <{fused_activation_function = \"NONE\", keep_num_dims = false, weights_format = \"DEFAULT\"}> : (tensor<1x32xf32>, tensor<64x32xf32>, none) -> tensor<1x64xf32>\n  %41 = \"tfl.logistic\"(%40) : (tensor<1x64xf32>) -> tensor<1x64xf32>\n  \"func.return\"(%41) : (tensor<1x64xf32>) -> ()\n}) {tf.entry_function = {control_outputs = \"\", inputs = \"input\", outputs = \"Identity_2\"}} : () -> ()\n"
  },
  "bug_id": "bug_0166"
}