{
  "compiler_class": "tflite",
  "affected_compilers": [
    "tflite"
  ],
  "total_score": 1.0,
  "input_shape": [
    1,
    32,
    32,
    32
  ],
  "pattern_sequence": [
    [
      "fusion",
      "conv_bn_relu_maxpool"
    ],
    [
      "fusion",
      "conv_bn_leakyrelu"
    ],
    [
      "fusion",
      "conv_gelu"
    ],
    [
      "broadcast",
      "sub_mul_add"
    ],
    [
      "constant",
      "where_const_cond"
    ],
    [
      "normalization",
      "batchnorm_eval"
    ]
  ],
  "delta_opt": {},
  "crashes": [
    "tflite+opt",
    "tflite+noopt"
  ],
  "errors": {
    "tflite+opt": "Could not translate MLIR to FlatBuffer./home/binduan/miniconda3/lib/python3.13/site-packages/tensorflow/python/autograph/operators/control_flow.py:1270:1: error: 'tf.MaxPool' op is neither a custom op nor a flex op\n  return body() if cond else orelse()\n^\n/home/binduan/myspace/trion/trion/oracle/_onnx_ops.py:625:1: note: called from\n        if op == \"MaxPool\" and (dH > 1 or dW > 1):\n^\n/home/binduan/miniconda3/lib/python3.13/site-packages/tensorflow/python/autograph/operators/control_flow.py:1217:1: note: called from\n    _py_if_stmt(cond, body, orelse)\n^\n/home/binduan/miniconda3/lib/python3.13/site-packages/tensorflow/python/autograph/operators/control_flow.py:1270:1: note: called from\n  return body() if cond else orelse()\n^\n/home/binduan/myspace/trion/trion/oracle/_onnx_ops.py:644:1: note: called from\n        elif op == \"MaxPool\":\n^\n/home/binduan/miniconda3/lib/python3.13/site-packages/tensorflow/python/autograph/operators/control_flow.py:1217:1: note: called from\n    _py_if_stmt(cond, body, orelse)\n^\n/home/binduan/miniconda3/lib/python3.13/site-packages/tensorflow/python/autograph/operators/control_flow.py:1270:1: note: called from\n  return body() if cond else orelse()\n^\n/home/binduan/myspace/trion/trion/oracle/_onnx_ops.py:645:1: note: called from\n            y_nhwc = tf.nn.max_pool2d(x_nhwc, ksize, str_tf, padding=paddings_tf)\n^\n/home/binduan/miniconda3/lib/python3.13/site-packages/tensorflow/python/util/traceback_utils.py:164:1: note: called from\n      return fn(*args, **kwargs)\n^\n/home/binduan/miniconda3/lib/python3.13/site-packages/tensorflow/python/util/dispatch.py:1264:1: note: called from\n        return dispatch_target(*args, **kwargs)\n^\n/home/binduan/miniconda3/lib/python3.13/site-packages/tensorflow/python/autograph/operators/control_flow.py:1270:1: note: see current operation: %17 = \"tf.MaxPool\"(%16) <{data_format = \"NHWC\", explicit_paddings = [0, 0, 0, 0, 0, 0, 0, 0], ksize = [1, 2, 2, 1], padding = \"EXPLICIT\", strides = [1, 2, 2, 1]}> {device = \"\"} : (tensor<1x32x32x64xf32>) -> tensor<1x16x16x64xf32>\n  return body() if cond else orelse()\n^\n/home/binduan/miniconda3/lib/python3.13/site-packages/tensorflow/python/autograph/operators/control_flow.py:1270:1: note: Error code: ERROR_NEEDS_FLEX_OPS\n<unknown>:0: error: failed while converting: 'main': \nSome ops are not supported by the native TFLite runtime, you can enable TF kernels fallback using TF Select. See instructions: https://www.tensorflow.org/lite/guide/ops_select \nTF Select ops: MaxPool\nDetails:\n\ttf.MaxPool(tensor<1x32x32x64xf32>) -> (tensor<1x16x16x64xf32>) : {data_format = \"NHWC\", device = \"\", explicit_paddings = [0, 0, 0, 0, 0, 0, 0, 0], ksize = [1, 2, 2, 1], padding = \"EXPLICIT\", strides = [1, 2, 2, 1]}\n\n<unknown>:0: note: see current operation: \n\"func.func\"() <{function_type = (tensor<1x32x32x32xf32>) -> tensor<1x256x8x8xf32>, sym_name = \"main\"}> ({\n^bb0(%arg0: tensor<1x32x32x32xf32>):\n  %0 = \"arith.constant\"() <{value = dense_resource<__elided__> : tensor<1x256x1x1xf32>}> : () -> tensor<1x256x1x1xf32>\n  %1 = \"arith.constant\"() <{value = dense_resource<__elided__> : tensor<1x256x1x1xf32>}> : () -> tensor<1x256x1x1xf32>\n  %2 = \"arith.constant\"() <{value = dense_resource<__elided__> : tensor<1x256x1x1xf32>}> : () -> tensor<1x256x1x1xf32>\n  %3 = \"arith.constant\"() <{value = dense_resource<__elided__> : tensor<1x256x8x8xf32>}> : () -> tensor<1x256x8x8xf32>\n  %4 = \"arith.constant\"() <{value = dense_resource<__elided__> : tensor<1x256x8x8xf32>}> : () -> tensor<1x256x8x8xf32>\n  %5 = \"arith.constant\"() <{value = dense_resource<__elided__> : tensor<1x256x8x8xf32>}> : () -> tensor<1x256x8x8xf32>\n  %6 = \"arith.constant\"() <{value = dense<[0, 3, 1, 2]> : tensor<4xi32>}> : () -> tensor<4xi32>\n  %7 = \"arith.constant\"() <{value = dense_resource<__elided__> : tensor<1x256x1x1xf32>}> : () -> tensor<1x256x1x1xf32>\n  %8 = \"arith.constant\"() <{value = dense<[0, 2, 3, 1]> : tensor<4xi32>}> : () -> tensor<4xi32>\n  %9 = \"arith.constant\"() <{value = dense<[[0, 0], [1, 1], [1, 1], [0, 0]]> : tensor<4x2xi32>}> : () -> tensor<4x2xi32>\n  %10 = \"arith.constant\"() <{value = dense<0.000000e+00> : tensor<256xf32>}> : () -> tensor<256xf32>\n  %11 = \"arith.constant\"() <{value = dense<0.000000e+00> : tensor<64xf32>}> : () -> tensor<64xf32>\n  %12 = \"tfl.pseudo_qconst\"() <{qtype = tensor<256x3x3x64x!quant.uniform<i8<-127:127>:f32:0, {… >>, value = dense_resource<__elided__> : tensor<256x3x3x64xi8>}> : () -> tensor<256x3x3x64x!quant.uniform<i8<-127:127>:f32:0, {… >>\n  %13 = \"tfl.pseudo_qconst\"() <{qtype = tensor<64x3x3x32x!quant.uniform<i8<-127:127>:f32:0, {… >>, value = dense_resource<__elided__> : tensor<64x3x3x32xi8>}> : () -> tensor<64x3x3x32x!quant.uniform<i8<-127:127>:f32:0, {… >>\n  %14 = \"tfl.pseudo_qconst\"() <{qtype = tensor<256x1x1x256x!quant.uniform<i8<-127:127>:f32:0, {… >>, value = dense_resource<__elided__> : tensor<256x1x1x256xi8>}> : () -> tensor<256x1x1x256x!quant.uniform<i8<-127:127>:f32:0, {… >>\n  %15 = \"tfl.transpose\"(%arg0, %8) : (tensor<1x32x32x32xf32>, tensor<4xi32>) -> tensor<1x32x32x32xf32>\n  %16 = \"tfl.conv_2d\"(%15, %13, %11) <{dilation_h_factor = 1 : i32, dilation_w_factor = 1 : i32, fused_activation_function = \"RELU\", padding = \"SAME\", stride_h = 1 : i32, stride_w = 1 : i32}> : (tensor<1x32x32x32xf32>, tensor<64x3x3x32x!quant.uniform<i8<-127:127>:f32:0, {… >>, tensor<64xf32>) -> tensor<1x32x32x64xf32>\n  %17 = \"tf.MaxPool\"(%16) <{data_format = \"NHWC\", explicit_paddings = [0, 0, 0, 0, 0, 0, 0, 0], ksize = [1, 2, 2, 1], padding = \"EXPLICIT\", strides = [1, 2, 2, 1]}> {device = \"\"} : (tensor<1x32x32x64xf32>) -> tensor<1x16x16x64xf32>\n  %18 = \"tfl.pad\"(%17, %9) : (tensor<1x16x16x64xf32>, tensor<4x2xi32>) -> tensor<1x18x18x64xf32>\n  %19 = \"tfl.conv_2d\"(%18, %12, %10) <{dilation_h_factor = 1 : i32, dilation_w_factor = 1 : i32, fused_activation_function = \"NONE\", padding = \"VALID\", stride_h = 2 : i32, stride_w = 2 : i32}> : (tensor<1x18x18x64xf32>, tensor<256x3x3x64x!quant.uniform<i8<-127:127>:f32:0, {… >>, tensor<256xf32>) -> tensor<1x8x8x256xf32>\n  %20 = \"tfl.transpose\"(%19, %6) : (tensor<1x8x8x256xf32>, tensor<4xi32>) -> tensor<1x256x8x8xf32>\n  %21 = \"tfl.leaky_relu\"(%20) <{alpha = 0.293346584 : f32}> : (tensor<1x256x8x8xf32>) -> tensor<1x256x8x8xf32>\n  %22 = \"tfl.transpose\"(%21, %8) : (tensor<1x256x8x8xf32>, tensor<4xi32>) -> tensor<1x8x8x256xf32>\n  %23 = \"tfl.conv_2d\"(%22, %14, %10) <{dilation_h_factor = 1 : i32, dilation_w_factor = 1 : i32, fused_activation_function = \"NONE\", padding = \"VALID\", stride_h = 1 : i32, stride_w = 1 : i32}> : (tensor<1x8x8x256xf32>, tensor<256x1x1x256x!quant.uniform<i8<-127:127>:f32:0, {… >>, tensor<256xf32>) -> tensor<1x8x8x256xf32>\n  %24 = \"tfl.transpose\"(%23, %6) : (tensor<1x8x8x256xf32>, tensor<4xi32>) -> tensor<1x256x8x8xf32>\n  %25 = \"tfl.gelu\"(%24) <{approximate = false}> : (tensor<1x256x8x8xf32>) -> tensor<1x256x8x8xf32>\n  %26 = \"tfl.sub\"(%25, %5) <{fused_activation_function = \"NONE\"}> : (tensor<1x256x8x8xf32>, tensor<1x256x8x8xf32>) -> tensor<1x256x8x8xf32>\n  %27 = \"tfl.mul\"(%26, %4) <{fused_activation_function = \"NONE\"}> : (tensor<1x256x8x8xf32>, tensor<1x256x8x8xf32>) -> tensor<1x256x8x8xf32>\n  %28 = \"tfl.add\"(%27, %3) <{fused_activation_function = \"NONE\"}> : (tensor<1x256x8x8xf32>, tensor<1x256x8x8xf32>) -> tensor<1x256x8x8xf32>\n  %29 = \"tfl.sub\"(%28, %2) <{fused_activation_function = \"NONE\"}> : (tensor<1x256x8x8xf32>, tensor<1x256x1x1xf32>) -> tensor<1x256x8x8xf32>\n  %30 = \"tfl.mul\"(%29, %7) <{fused_activation_function = \"NONE\"}> : (tensor<1x256x8x8xf32>, tensor<1x256x1x1xf32>) -> tensor<1x256x8x8xf32>\n  %31 = \"tfl.mul\"(%30, %1) <{fused_activation_function = \"NONE\"}> : (tensor<1x256x8x8xf32>, tensor<1x256x1x1xf32>) -> tensor<1x256x8x8xf32>\n  %32 = \"tfl.add\"(%31, %0) <{fused_activation_function = \"NONE\"}> : (tensor<1x256x8x8xf32>, tensor<1x256x1x1xf32>) -> tensor<1x256x8x8xf32>\n  \"func.return\"(%32) : (tensor<1x256x8x8xf32>) -> ()\n}) {tf.entry_function = {control_outputs = \"\", inputs = \"input\", outputs = \"Identity\"}} : () -> ()\n",
    "tflite+noopt": "Could not translate MLIR to FlatBuffer./home/binduan/miniconda3/lib/python3.13/site-packages/tensorflow/python/autograph/operators/control_flow.py:1270:1: error: 'tf.MaxPool' op is neither a custom op nor a flex op\n  return body() if cond else orelse()\n^\n/home/binduan/myspace/trion/trion/oracle/_onnx_ops.py:625:1: note: called from\n        if op == \"MaxPool\" and (dH > 1 or dW > 1):\n^\n/home/binduan/miniconda3/lib/python3.13/site-packages/tensorflow/python/autograph/operators/control_flow.py:1217:1: note: called from\n    _py_if_stmt(cond, body, orelse)\n^\n/home/binduan/miniconda3/lib/python3.13/site-packages/tensorflow/python/autograph/operators/control_flow.py:1270:1: note: called from\n  return body() if cond else orelse()\n^\n/home/binduan/myspace/trion/trion/oracle/_onnx_ops.py:644:1: note: called from\n        elif op == \"MaxPool\":\n^\n/home/binduan/miniconda3/lib/python3.13/site-packages/tensorflow/python/autograph/operators/control_flow.py:1217:1: note: called from\n    _py_if_stmt(cond, body, orelse)\n^\n/home/binduan/miniconda3/lib/python3.13/site-packages/tensorflow/python/autograph/operators/control_flow.py:1270:1: note: called from\n  return body() if cond else orelse()\n^\n/home/binduan/myspace/trion/trion/oracle/_onnx_ops.py:645:1: note: called from\n            y_nhwc = tf.nn.max_pool2d(x_nhwc, ksize, str_tf, padding=paddings_tf)\n^\n/home/binduan/miniconda3/lib/python3.13/site-packages/tensorflow/python/util/traceback_utils.py:164:1: note: called from\n      return fn(*args, **kwargs)\n^\n/home/binduan/miniconda3/lib/python3.13/site-packages/tensorflow/python/util/dispatch.py:1264:1: note: called from\n        return dispatch_target(*args, **kwargs)\n^\n/home/binduan/miniconda3/lib/python3.13/site-packages/tensorflow/python/autograph/operators/control_flow.py:1270:1: note: see current operation: %17 = \"tf.MaxPool\"(%16) <{data_format = \"NHWC\", explicit_paddings = [0, 0, 0, 0, 0, 0, 0, 0], ksize = [1, 2, 2, 1], padding = \"EXPLICIT\", strides = [1, 2, 2, 1]}> {device = \"\"} : (tensor<1x32x32x64xf32>) -> tensor<1x16x16x64xf32>\n  return body() if cond else orelse()\n^\n/home/binduan/miniconda3/lib/python3.13/site-packages/tensorflow/python/autograph/operators/control_flow.py:1270:1: note: Error code: ERROR_NEEDS_FLEX_OPS\n<unknown>:0: error: failed while converting: 'main': \nSome ops are not supported by the native TFLite runtime, you can enable TF kernels fallback using TF Select. See instructions: https://www.tensorflow.org/lite/guide/ops_select \nTF Select ops: MaxPool\nDetails:\n\ttf.MaxPool(tensor<1x32x32x64xf32>) -> (tensor<1x16x16x64xf32>) : {data_format = \"NHWC\", device = \"\", explicit_paddings = [0, 0, 0, 0, 0, 0, 0, 0], ksize = [1, 2, 2, 1], padding = \"EXPLICIT\", strides = [1, 2, 2, 1]}\n\n<unknown>:0: note: see current operation: \n\"func.func\"() <{function_type = (tensor<1x32x32x32xf32>) -> tensor<1x256x8x8xf32>, sym_name = \"main\"}> ({\n^bb0(%arg0: tensor<1x32x32x32xf32>):\n  %0 = \"arith.constant\"() <{value = dense_resource<__elided__> : tensor<256x3x3x64xf32>}> : () -> tensor<256x3x3x64xf32>\n  %1 = \"arith.constant\"() <{value = dense<0.000000e+00> : tensor<64xf32>}> : () -> tensor<64xf32>\n  %2 = \"arith.constant\"() <{value = dense_resource<__elided__> : tensor<64x3x3x32xf32>}> : () -> tensor<64x3x3x32xf32>\n  %3 = \"arith.constant\"() <{value = dense_resource<__elided__> : tensor<256x1x1x256xf32>}> : () -> tensor<256x1x1x256xf32>\n  %4 = \"arith.constant\"() <{value = dense<0.000000e+00> : tensor<256xf32>}> : () -> tensor<256xf32>\n  %5 = \"arith.constant\"() <{value = dense<[[0, 0], [1, 1], [1, 1], [0, 0]]> : tensor<4x2xi32>}> : () -> tensor<4x2xi32>\n  %6 = \"arith.constant\"() <{value = dense<[0, 2, 3, 1]> : tensor<4xi32>}> : () -> tensor<4xi32>\n  %7 = \"arith.constant\"() <{value = dense_resource<__elided__> : tensor<1x256x1x1xf32>}> : () -> tensor<1x256x1x1xf32>\n  %8 = \"arith.constant\"() <{value = dense<[0, 3, 1, 2]> : tensor<4xi32>}> : () -> tensor<4xi32>\n  %9 = \"arith.constant\"() <{value = dense_resource<__elided__> : tensor<1x256x8x8xf32>}> : () -> tensor<1x256x8x8xf32>\n  %10 = \"arith.constant\"() <{value = dense_resource<__elided__> : tensor<1x256x8x8xf32>}> : () -> tensor<1x256x8x8xf32>\n  %11 = \"arith.constant\"() <{value = dense_resource<__elided__> : tensor<1x256x8x8xf32>}> : () -> tensor<1x256x8x8xf32>\n  %12 = \"arith.constant\"() <{value = dense_resource<__elided__> : tensor<1x256x1x1xf32>}> : () -> tensor<1x256x1x1xf32>\n  %13 = \"arith.constant\"() <{value = dense_resource<__elided__> : tensor<1x256x1x1xf32>}> : () -> tensor<1x256x1x1xf32>\n  %14 = \"arith.constant\"() <{value = dense_resource<__elided__> : tensor<1x256x1x1xf32>}> : () -> tensor<1x256x1x1xf32>\n  %15 = \"tfl.transpose\"(%arg0, %6) : (tensor<1x32x32x32xf32>, tensor<4xi32>) -> tensor<1x32x32x32xf32>\n  %16 = \"tfl.conv_2d\"(%15, %2, %1) <{dilation_h_factor = 1 : i32, dilation_w_factor = 1 : i32, fused_activation_function = \"RELU\", padding = \"SAME\", stride_h = 1 : i32, stride_w = 1 : i32}> : (tensor<1x32x32x32xf32>, tensor<64x3x3x32xf32>, tensor<64xf32>) -> tensor<1x32x32x64xf32>\n  %17 = \"tf.MaxPool\"(%16) <{data_format = \"NHWC\", explicit_paddings = [0, 0, 0, 0, 0, 0, 0, 0], ksize = [1, 2, 2, 1], padding = \"EXPLICIT\", strides = [1, 2, 2, 1]}> {device = \"\"} : (tensor<1x32x32x64xf32>) -> tensor<1x16x16x64xf32>\n  %18 = \"tfl.pad\"(%17, %5) : (tensor<1x16x16x64xf32>, tensor<4x2xi32>) -> tensor<1x18x18x64xf32>\n  %19 = \"tfl.conv_2d\"(%18, %0, %4) <{dilation_h_factor = 1 : i32, dilation_w_factor = 1 : i32, fused_activation_function = \"NONE\", padding = \"VALID\", stride_h = 2 : i32, stride_w = 2 : i32}> : (tensor<1x18x18x64xf32>, tensor<256x3x3x64xf32>, tensor<256xf32>) -> tensor<1x8x8x256xf32>\n  %20 = \"tfl.transpose\"(%19, %8) : (tensor<1x8x8x256xf32>, tensor<4xi32>) -> tensor<1x256x8x8xf32>\n  %21 = \"tfl.leaky_relu\"(%20) <{alpha = 0.293346584 : f32}> : (tensor<1x256x8x8xf32>) -> tensor<1x256x8x8xf32>\n  %22 = \"tfl.transpose\"(%21, %6) : (tensor<1x256x8x8xf32>, tensor<4xi32>) -> tensor<1x8x8x256xf32>\n  %23 = \"tfl.conv_2d\"(%22, %3, %4) <{dilation_h_factor = 1 : i32, dilation_w_factor = 1 : i32, fused_activation_function = \"NONE\", padding = \"VALID\", stride_h = 1 : i32, stride_w = 1 : i32}> : (tensor<1x8x8x256xf32>, tensor<256x1x1x256xf32>, tensor<256xf32>) -> tensor<1x8x8x256xf32>\n  %24 = \"tfl.transpose\"(%23, %8) : (tensor<1x8x8x256xf32>, tensor<4xi32>) -> tensor<1x256x8x8xf32>\n  %25 = \"tfl.gelu\"(%24) <{approximate = false}> : (tensor<1x256x8x8xf32>) -> tensor<1x256x8x8xf32>\n  %26 = \"tfl.sub\"(%25, %9) <{fused_activation_function = \"NONE\"}> : (tensor<1x256x8x8xf32>, tensor<1x256x8x8xf32>) -> tensor<1x256x8x8xf32>\n  %27 = \"tfl.mul\"(%26, %10) <{fused_activation_function = \"NONE\"}> : (tensor<1x256x8x8xf32>, tensor<1x256x8x8xf32>) -> tensor<1x256x8x8xf32>\n  %28 = \"tfl.add\"(%27, %11) <{fused_activation_function = \"NONE\"}> : (tensor<1x256x8x8xf32>, tensor<1x256x8x8xf32>) -> tensor<1x256x8x8xf32>\n  %29 = \"tfl.sub\"(%28, %12) <{fused_activation_function = \"NONE\"}> : (tensor<1x256x8x8xf32>, tensor<1x256x1x1xf32>) -> tensor<1x256x8x8xf32>\n  %30 = \"tfl.mul\"(%29, %7) <{fused_activation_function = \"NONE\"}> : (tensor<1x256x8x8xf32>, tensor<1x256x1x1xf32>) -> tensor<1x256x8x8xf32>\n  %31 = \"tfl.mul\"(%30, %13) <{fused_activation_function = \"NONE\"}> : (tensor<1x256x8x8xf32>, tensor<1x256x1x1xf32>) -> tensor<1x256x8x8xf32>\n  %32 = \"tfl.add\"(%31, %14) <{fused_activation_function = \"NONE\"}> : (tensor<1x256x8x8xf32>, tensor<1x256x1x1xf32>) -> tensor<1x256x8x8xf32>\n  \"func.return\"(%32) : (tensor<1x256x8x8xf32>) -> ()\n}) {tf.entry_function = {control_outputs = \"\", inputs = \"input\", outputs = \"Identity\"}} : () -> ()\n"
  },
  "bug_id": "bug_0182"
}