{
  "compiler_class": "tflite",
  "affected_compilers": [
    "tflite"
  ],
  "total_score": 1.0,
  "input_shape": [
    1,
    3,
    32,
    32
  ],
  "pattern_sequence": [
    [
      "layout",
      "double_transpose"
    ],
    [
      "fusion",
      "conv_asym_pad_bn"
    ],
    [
      "layout",
      "dilated_max_pool"
    ],
    [
      "normalization",
      "layernorm_relu"
    ],
    [
      "branch",
      "concat_conv"
    ],
    [
      "layout",
      "pad_conv"
    ]
  ],
  "delta_opt": {},
  "crashes": [
    "tflite+opt",
    "tflite+noopt"
  ],
  "errors": {
    "tflite+opt": "Could not translate MLIR to FlatBuffer./home/binduan/myspace/trion/trion/oracle/_onnx_ops.py:358:1: error: 'tf.ExtractImagePatches' op is neither a custom op nor a flex op\n        return _pool(node, get, F)\n^\n/home/binduan/myspace/trion/trion/oracle/_onnx_ops.py:590:1: note: called from\n    if _is_jax_module(F):\n^\n/home/binduan/miniconda3/lib/python3.13/site-packages/tensorflow/python/autograph/operators/control_flow.py:1217:1: note: called from\n    _py_if_stmt(cond, body, orelse)\n^\n/home/binduan/miniconda3/lib/python3.13/site-packages/tensorflow/python/autograph/operators/control_flow.py:1270:1: note: called from\n  return body() if cond else orelse()\n^\n/home/binduan/myspace/trion/trion/oracle/_onnx_ops.py:625:1: note: called from\n        if op == \"MaxPool\" and (dH > 1 or dW > 1):\n^\n/home/binduan/miniconda3/lib/python3.13/site-packages/tensorflow/python/autograph/operators/control_flow.py:1217:1: note: called from\n    _py_if_stmt(cond, body, orelse)\n^\n/home/binduan/miniconda3/lib/python3.13/site-packages/tensorflow/python/autograph/operators/control_flow.py:1270:1: note: called from\n  return body() if cond else orelse()\n^\n/home/binduan/myspace/trion/trion/oracle/_onnx_ops.py:632:1: note: called from\n            patches = tf.image.extract_patches(\n^\n/home/binduan/miniconda3/lib/python3.13/site-packages/tensorflow/python/ops/weak_tensor_ops.py:88:1: note: called from\n      return op(*args, **kwargs)\n^\n/home/binduan/miniconda3/lib/python3.13/site-packages/tensorflow/python/util/traceback_utils.py:164:1: note: called from\n      return fn(*args, **kwargs)\n^\n/home/binduan/myspace/trion/trion/oracle/_onnx_ops.py:358:1: note: see current operation: %21 = \"tf.ExtractImagePatches\"(%20) <{ksizes = [1, 3, 3, 1], padding = \"VALID\", rates = [1, 2, 2, 1], strides = [1, 1, 1, 1]}> {device = \"\"} : (tensor<1x33x33x32xf32>) -> tensor<1x29x29x288xf32>\n        return _pool(node, get, F)\n^\n/home/binduan/myspace/trion/trion/oracle/_onnx_ops.py:358:1: note: Error code: ERROR_NEEDS_FLEX_OPS\n<unknown>:0: error: failed while converting: 'main': \nSome ops are not supported by the native TFLite runtime, you can enable TF kernels fallback using TF Select. See instructions: https://www.tensorflow.org/lite/guide/ops_select \nTF Select ops: ExtractImagePatches\nDetails:\n\ttf.ExtractImagePatches(tensor<1x33x33x32xf32>) -> (tensor<1x29x29x288xf32>) : {device = \"\", ksizes = [1, 3, 3, 1], padding = \"VALID\", rates = [1, 2, 2, 1], strides = [1, 1, 1, 1]}\n\n<unknown>:0: note: see current operation: \n\"func.func\"() <{function_type = (tensor<1x3x32x32xf32>) -> tensor<1x256x31x31xf32>, sym_name = \"main\"}> ({\n^bb0(%arg0: tensor<1x3x32x32xf32>):\n  %0 = \"arith.constant\"() <{value = dense_resource<__elided__> : tensor<1x64x29x29xf32>}> : () -> tensor<1x64x29x29xf32>\n  %1 = \"arith.constant\"() <{value = dense<[[0, 0], [0, 0], [1, 0], [0, 1]]> : tensor<4x2xi32>}> : () -> tensor<4x2xi32>\n  %2 = \"arith.constant\"() <{value = dense<[[0, 0], [0, 0], [2, 2], [2, 2]]> : tensor<4x2xi32>}> : () -> tensor<4x2xi32>\n  %3 = \"arith.constant\"() <{value = dense<3> : tensor<i32>}> : () -> tensor<i32>\n  %4 = \"arith.constant\"() <{value = dense<3> : tensor<1xi32>}> : () -> tensor<1xi32>\n  %5 = \"arith.constant\"() <{value = dense<-1.000000e+09> : tensor<f32>}> : () -> tensor<f32>\n  %6 = \"arith.constant\"() <{value = dense<[[0, 0], [1, 1], [1, 1], [0, 0]]> : tensor<4x2xi32>}> : () -> tensor<4x2xi32>\n  %7 = \"arith.constant\"() <{value = dense<[-1, 29, 29, 9, 32]> : tensor<5xi32>}> : () -> tensor<5xi32>\n  %8 = \"arith.constant\"() <{value = dense<9.99999974E-6> : tensor<f32>}> : () -> tensor<f32>\n  %9 = \"arith.constant\"() <{value = dense<[0, 2, 3, 1]> : tensor<4xi32>}> : () -> tensor<4xi32>\n  %10 = \"arith.constant\"() <{value = dense<[0, 3, 1, 2]> : tensor<4xi32>}> : () -> tensor<4xi32>\n  %11 = \"arith.constant\"() <{value = dense<0.000000e+00> : tensor<64xf32>}> : () -> tensor<64xf32>\n  %12 = \"arith.constant\"() <{value = dense<0.000000e+00> : tensor<256xf32>}> : () -> tensor<256xf32>\n  %13 = \"arith.constant\"() <{value = dense<0.000000e+00> : tensor<32xf32>}> : () -> tensor<32xf32>\n  %14 = \"arith.constant\"() <{value = dense_resource<__elided__> : tensor<32x3x3x3xf32>}> : () -> tensor<32x3x3x3xf32>\n  %15 = \"tfl.pseudo_qconst\"() <{qtype = tensor<256x3x3x64x!quant.uniform<i8<-127:127>:f32:0, {… >>, value = dense_resource<__elided__> : tensor<256x3x3x64xi8>}> : () -> tensor<256x3x3x64x!quant.uniform<i8<-127:127>:f32:0, {… >>\n  %16 = \"tfl.pseudo_qconst\"() <{qtype = tensor<64x1x1x96x!quant.uniform<i8<-127:127>:f32:0, {… >>, value = dense_resource<__elided__> : tensor<64x1x1x96xi8>}> : () -> tensor<64x1x1x96x!quant.uniform<i8<-127:127>:f32:0, {… >>\n  %17 = \"tfl.pad\"(%arg0, %1) : (tensor<1x3x32x32xf32>, tensor<4x2xi32>) -> tensor<1x3x33x33xf32>\n  %18 = \"tfl.transpose\"(%17, %9) : (tensor<1x3x33x33xf32>, tensor<4xi32>) -> tensor<1x33x33x3xf32>\n  %19 = \"tfl.conv_2d\"(%18, %14, %13) <{dilation_h_factor = 1 : i32, dilation_w_factor = 1 : i32, fused_activation_function = \"NONE\", padding = \"VALID\", stride_h = 1 : i32, stride_w = 1 : i32}> : (tensor<1x33x33x3xf32>, tensor<32x3x3x3xf32>, tensor<32xf32>) -> tensor<1x31x31x32xf32>\n  %20 = \"tfl.padv2\"(%19, %6, %5) : (tensor<1x31x31x32xf32>, tensor<4x2xi32>, tensor<f32>) -> tensor<1x33x33x32xf32>\n  %21 = \"tf.ExtractImagePatches\"(%20) <{ksizes = [1, 3, 3, 1], padding = \"VALID\", rates = [1, 2, 2, 1], strides = [1, 1, 1, 1]}> {device = \"\"} : (tensor<1x33x33x32xf32>) -> tensor<1x29x29x288xf32>\n  %22 = \"tfl.reshape\"(%21, %7) : (tensor<1x29x29x288xf32>, tensor<5xi32>) -> tensor<1x29x29x9x32xf32>\n  %23 = \"tfl.reduce_max\"(%22, %3) <{keep_dims = false}> : (tensor<1x29x29x9x32xf32>, tensor<i32>) -> tensor<1x29x29x32xf32>\n  %24 = \"tfl.transpose\"(%23, %10) : (tensor<1x29x29x32xf32>, tensor<4xi32>) -> tensor<1x32x29x29xf32>\n  %25 = \"tfl.mean\"(%24, %4) <{keep_dims = true}> : (tensor<1x32x29x29xf32>, tensor<1xi32>) -> tensor<1x32x29x1xf32>\n  %26 = \"tfl.sub\"(%24, %25) <{fused_activation_function = \"NONE\"}> : (tensor<1x32x29x29xf32>, tensor<1x32x29x1xf32>) -> tensor<1x32x29x29xf32>\n  %27 = \"tfl.mul\"(%26, %26) <{fused_activation_function = \"NONE\"}> : (tensor<1x32x29x29xf32>, tensor<1x32x29x29xf32>) -> tensor<1x32x29x29xf32>\n  %28 = \"tfl.mean\"(%27, %4) <{keep_dims = true}> : (tensor<1x32x29x29xf32>, tensor<1xi32>) -> tensor<1x32x29x1xf32>\n  %29 = \"tfl.add\"(%28, %8) <{fused_activation_function = \"NONE\"}> : (tensor<1x32x29x1xf32>, tensor<f32>) -> tensor<1x32x29x1xf32>\n  %30 = \"tfl.rsqrt\"(%29) : (tensor<1x32x29x1xf32>) -> tensor<1x32x29x1xf32>\n  %31 = \"tfl.mul\"(%26, %30) <{fused_activation_function = \"RELU\"}> : (tensor<1x32x29x29xf32>, tensor<1x32x29x1xf32>) -> tensor<1x32x29x29xf32>\n  %32 = \"tfl.concatenation\"(%31, %0) <{axis = 1 : i32, fused_activation_function = \"NONE\"}> : (tensor<1x32x29x29xf32>, tensor<1x64x29x29xf32>) -> tensor<1x96x29x29xf32>\n  %33 = \"tfl.transpose\"(%32, %9) : (tensor<1x96x29x29xf32>, tensor<4xi32>) -> tensor<1x29x29x96xf32>\n  %34 = \"tfl.conv_2d\"(%33, %16, %11) <{dilation_h_factor = 1 : i32, dilation_w_factor = 1 : i32, fused_activation_function = \"NONE\", padding = \"VALID\", stride_h = 1 : i32, stride_w = 1 : i32}> : (tensor<1x29x29x96xf32>, tensor<64x1x1x96x!quant.uniform<i8<-127:127>:f32:0, {… >>, tensor<64xf32>) -> tensor<1x29x29x64xf32>\n  %35 = \"tfl.transpose\"(%34, %10) : (tensor<1x29x29x64xf32>, tensor<4xi32>) -> tensor<1x64x29x29xf32>\n  %36 = \"tfl.pad\"(%35, %2) : (tensor<1x64x29x29xf32>, tensor<4x2xi32>) -> tensor<1x64x33x33xf32>\n  %37 = \"tfl.transpose\"(%36, %9) : (tensor<1x64x33x33xf32>, tensor<4xi32>) -> tensor<1x33x33x64xf32>\n  %38 = \"tfl.conv_2d\"(%37, %15, %12) <{dilation_h_factor = 1 : i32, dilation_w_factor = 1 : i32, fused_activation_function = \"NONE\", padding = \"VALID\", stride_h = 1 : i32, stride_w = 1 : i32}> : (tensor<1x33x33x64xf32>, tensor<256x3x3x64x!quant.uniform<i8<-127:127>:f32:0, {… >>, tensor<256xf32>) -> tensor<1x31x31x256xf32>\n  %39 = \"tfl.transpose\"(%38, %10) : (tensor<1x31x31x256xf32>, tensor<4xi32>) -> tensor<1x256x31x31xf32>\n  \"func.return\"(%39) : (tensor<1x256x31x31xf32>) -> ()\n}) {tf.entry_function = {control_outputs = \"\", inputs = \"input\", outputs = \"Identity_2\"}} : () -> ()\n",
    "tflite+noopt": "Could not translate MLIR to FlatBuffer./home/binduan/myspace/trion/trion/oracle/_onnx_ops.py:358:1: error: 'tf.ExtractImagePatches' op is neither a custom op nor a flex op\n        return _pool(node, get, F)\n^\n/home/binduan/myspace/trion/trion/oracle/_onnx_ops.py:590:1: note: called from\n    if _is_jax_module(F):\n^\n/home/binduan/miniconda3/lib/python3.13/site-packages/tensorflow/python/autograph/operators/control_flow.py:1217:1: note: called from\n    _py_if_stmt(cond, body, orelse)\n^\n/home/binduan/miniconda3/lib/python3.13/site-packages/tensorflow/python/autograph/operators/control_flow.py:1270:1: note: called from\n  return body() if cond else orelse()\n^\n/home/binduan/myspace/trion/trion/oracle/_onnx_ops.py:625:1: note: called from\n        if op == \"MaxPool\" and (dH > 1 or dW > 1):\n^\n/home/binduan/miniconda3/lib/python3.13/site-packages/tensorflow/python/autograph/operators/control_flow.py:1217:1: note: called from\n    _py_if_stmt(cond, body, orelse)\n^\n/home/binduan/miniconda3/lib/python3.13/site-packages/tensorflow/python/autograph/operators/control_flow.py:1270:1: note: called from\n  return body() if cond else orelse()\n^\n/home/binduan/myspace/trion/trion/oracle/_onnx_ops.py:632:1: note: called from\n            patches = tf.image.extract_patches(\n^\n/home/binduan/miniconda3/lib/python3.13/site-packages/tensorflow/python/ops/weak_tensor_ops.py:88:1: note: called from\n      return op(*args, **kwargs)\n^\n/home/binduan/miniconda3/lib/python3.13/site-packages/tensorflow/python/util/traceback_utils.py:164:1: note: called from\n      return fn(*args, **kwargs)\n^\n/home/binduan/myspace/trion/trion/oracle/_onnx_ops.py:358:1: note: see current operation: %21 = \"tf.ExtractImagePatches\"(%20) <{ksizes = [1, 3, 3, 1], padding = \"VALID\", rates = [1, 2, 2, 1], strides = [1, 1, 1, 1]}> {device = \"\"} : (tensor<1x33x33x32xf32>) -> tensor<1x29x29x288xf32>\n        return _pool(node, get, F)\n^\n/home/binduan/myspace/trion/trion/oracle/_onnx_ops.py:358:1: note: Error code: ERROR_NEEDS_FLEX_OPS\n<unknown>:0: error: failed while converting: 'main': \nSome ops are not supported by the native TFLite runtime, you can enable TF kernels fallback using TF Select. See instructions: https://www.tensorflow.org/lite/guide/ops_select \nTF Select ops: ExtractImagePatches\nDetails:\n\ttf.ExtractImagePatches(tensor<1x33x33x32xf32>) -> (tensor<1x29x29x288xf32>) : {device = \"\", ksizes = [1, 3, 3, 1], padding = \"VALID\", rates = [1, 2, 2, 1], strides = [1, 1, 1, 1]}\n\n<unknown>:0: note: see current operation: \n\"func.func\"() <{function_type = (tensor<1x3x32x32xf32>) -> tensor<1x256x31x31xf32>, sym_name = \"main\"}> ({\n^bb0(%arg0: tensor<1x3x32x32xf32>):\n  %0 = \"arith.constant\"() <{value = dense<0.000000e+00> : tensor<32xf32>}> : () -> tensor<32xf32>\n  %1 = \"arith.constant\"() <{value = dense_resource<__elided__> : tensor<32x3x3x3xf32>}> : () -> tensor<32x3x3x3xf32>\n  %2 = \"arith.constant\"() <{value = dense_resource<__elided__> : tensor<256x3x3x64xf32>}> : () -> tensor<256x3x3x64xf32>\n  %3 = \"arith.constant\"() <{value = dense<0.000000e+00> : tensor<256xf32>}> : () -> tensor<256xf32>\n  %4 = \"arith.constant\"() <{value = dense_resource<__elided__> : tensor<64x1x1x96xf32>}> : () -> tensor<64x1x1x96xf32>\n  %5 = \"arith.constant\"() <{value = dense<0.000000e+00> : tensor<64xf32>}> : () -> tensor<64xf32>\n  %6 = \"arith.constant\"() <{value = dense<[0, 3, 1, 2]> : tensor<4xi32>}> : () -> tensor<4xi32>\n  %7 = \"arith.constant\"() <{value = dense<[0, 2, 3, 1]> : tensor<4xi32>}> : () -> tensor<4xi32>\n  %8 = \"arith.constant\"() <{value = dense<9.99999974E-6> : tensor<f32>}> : () -> tensor<f32>\n  %9 = \"arith.constant\"() <{value = dense<[-1, 29, 29, 9, 32]> : tensor<5xi32>}> : () -> tensor<5xi32>\n  %10 = \"arith.constant\"() <{value = dense<[[0, 0], [1, 1], [1, 1], [0, 0]]> : tensor<4x2xi32>}> : () -> tensor<4x2xi32>\n  %11 = \"arith.constant\"() <{value = dense<-1.000000e+09> : tensor<f32>}> : () -> tensor<f32>\n  %12 = \"arith.constant\"() <{value = dense<3> : tensor<1xi32>}> : () -> tensor<1xi32>\n  %13 = \"arith.constant\"() <{value = dense<3> : tensor<i32>}> : () -> tensor<i32>\n  %14 = \"arith.constant\"() <{value = dense<[[0, 0], [0, 0], [2, 2], [2, 2]]> : tensor<4x2xi32>}> : () -> tensor<4x2xi32>\n  %15 = \"arith.constant\"() <{value = dense<[[0, 0], [0, 0], [1, 0], [0, 1]]> : tensor<4x2xi32>}> : () -> tensor<4x2xi32>\n  %16 = \"arith.constant\"() <{value = dense_resource<__elided__> : tensor<1x64x29x29xf32>}> : () -> tensor<1x64x29x29xf32>\n  %17 = \"tfl.pad\"(%arg0, %15) : (tensor<1x3x32x32xf32>, tensor<4x2xi32>) -> tensor<1x3x33x33xf32>\n  %18 = \"tfl.transpose\"(%17, %7) : (tensor<1x3x33x33xf32>, tensor<4xi32>) -> tensor<1x33x33x3xf32>\n  %19 = \"tfl.conv_2d\"(%18, %1, %0) <{dilation_h_factor = 1 : i32, dilation_w_factor = 1 : i32, fused_activation_function = \"NONE\", padding = \"VALID\", stride_h = 1 : i32, stride_w = 1 : i32}> : (tensor<1x33x33x3xf32>, tensor<32x3x3x3xf32>, tensor<32xf32>) -> tensor<1x31x31x32xf32>\n  %20 = \"tfl.padv2\"(%19, %10, %11) : (tensor<1x31x31x32xf32>, tensor<4x2xi32>, tensor<f32>) -> tensor<1x33x33x32xf32>\n  %21 = \"tf.ExtractImagePatches\"(%20) <{ksizes = [1, 3, 3, 1], padding = \"VALID\", rates = [1, 2, 2, 1], strides = [1, 1, 1, 1]}> {device = \"\"} : (tensor<1x33x33x32xf32>) -> tensor<1x29x29x288xf32>\n  %22 = \"tfl.reshape\"(%21, %9) : (tensor<1x29x29x288xf32>, tensor<5xi32>) -> tensor<1x29x29x9x32xf32>\n  %23 = \"tfl.reduce_max\"(%22, %13) <{keep_dims = false}> : (tensor<1x29x29x9x32xf32>, tensor<i32>) -> tensor<1x29x29x32xf32>\n  %24 = \"tfl.transpose\"(%23, %6) : (tensor<1x29x29x32xf32>, tensor<4xi32>) -> tensor<1x32x29x29xf32>\n  %25 = \"tfl.mean\"(%24, %12) <{keep_dims = true}> : (tensor<1x32x29x29xf32>, tensor<1xi32>) -> tensor<1x32x29x1xf32>\n  %26 = \"tfl.sub\"(%24, %25) <{fused_activation_function = \"NONE\"}> : (tensor<1x32x29x29xf32>, tensor<1x32x29x1xf32>) -> tensor<1x32x29x29xf32>\n  %27 = \"tfl.mul\"(%26, %26) <{fused_activation_function = \"NONE\"}> : (tensor<1x32x29x29xf32>, tensor<1x32x29x29xf32>) -> tensor<1x32x29x29xf32>\n  %28 = \"tfl.mean\"(%27, %12) <{keep_dims = true}> : (tensor<1x32x29x29xf32>, tensor<1xi32>) -> tensor<1x32x29x1xf32>\n  %29 = \"tfl.add\"(%28, %8) <{fused_activation_function = \"NONE\"}> : (tensor<1x32x29x1xf32>, tensor<f32>) -> tensor<1x32x29x1xf32>\n  %30 = \"tfl.rsqrt\"(%29) : (tensor<1x32x29x1xf32>) -> tensor<1x32x29x1xf32>\n  %31 = \"tfl.mul\"(%26, %30) <{fused_activation_function = \"RELU\"}> : (tensor<1x32x29x29xf32>, tensor<1x32x29x1xf32>) -> tensor<1x32x29x29xf32>\n  %32 = \"tfl.concatenation\"(%31, %16) <{axis = 1 : i32, fused_activation_function = \"NONE\"}> : (tensor<1x32x29x29xf32>, tensor<1x64x29x29xf32>) -> tensor<1x96x29x29xf32>\n  %33 = \"tfl.transpose\"(%32, %7) : (tensor<1x96x29x29xf32>, tensor<4xi32>) -> tensor<1x29x29x96xf32>\n  %34 = \"tfl.conv_2d\"(%33, %4, %5) <{dilation_h_factor = 1 : i32, dilation_w_factor = 1 : i32, fused_activation_function = \"NONE\", padding = \"VALID\", stride_h = 1 : i32, stride_w = 1 : i32}> : (tensor<1x29x29x96xf32>, tensor<64x1x1x96xf32>, tensor<64xf32>) -> tensor<1x29x29x64xf32>\n  %35 = \"tfl.transpose\"(%34, %6) : (tensor<1x29x29x64xf32>, tensor<4xi32>) -> tensor<1x64x29x29xf32>\n  %36 = \"tfl.pad\"(%35, %14) : (tensor<1x64x29x29xf32>, tensor<4x2xi32>) -> tensor<1x64x33x33xf32>\n  %37 = \"tfl.transpose\"(%36, %7) : (tensor<1x64x33x33xf32>, tensor<4xi32>) -> tensor<1x33x33x64xf32>\n  %38 = \"tfl.conv_2d\"(%37, %2, %3) <{dilation_h_factor = 1 : i32, dilation_w_factor = 1 : i32, fused_activation_function = \"NONE\", padding = \"VALID\", stride_h = 1 : i32, stride_w = 1 : i32}> : (tensor<1x33x33x64xf32>, tensor<256x3x3x64xf32>, tensor<256xf32>) -> tensor<1x31x31x256xf32>\n  %39 = \"tfl.transpose\"(%38, %6) : (tensor<1x31x31x256xf32>, tensor<4xi32>) -> tensor<1x256x31x31xf32>\n  \"func.return\"(%39) : (tensor<1x256x31x31xf32>) -> ()\n}) {tf.entry_function = {control_outputs = \"\", inputs = \"input\", outputs = \"Identity_2\"}} : () -> ()\n"
  },
  "bug_id": "bug_0195"
}