{
  "compiler_class": "tflite",
  "affected_compilers": [
    "tflite"
  ],
  "total_score": 1.0,
  "input_shape": [
    1,
    3,
    32,
    32
  ],
  "pattern_sequence": [
    [
      "layout",
      "reshape_layernorm_reshape"
    ],
    [
      "broadcast",
      "euclidean_norm_broadcast"
    ],
    [
      "branch",
      "spatial_attention_cbam"
    ],
    [
      "fusion",
      "conv_transpose_bn_relu"
    ],
    [
      "constant",
      "learned_temperature_scale"
    ],
    [
      "normalization",
      "ada_layer_norm"
    ]
  ],
  "delta_opt": {},
  "crashes": [
    "tflite+opt",
    "tflite+noopt"
  ],
  "errors": {
    "tflite+opt": "Could not translate MLIR to FlatBuffer./home/binduan/myspace/trion/trion/oracle/_onnx_ops.py:319:1: error: 'tf.Conv2DBackpropInput' op is neither a custom op nor a flex op\n    if op == \"ConvTranspose\":\n^\n/home/binduan/miniconda3/lib/python3.13/site-packages/tensorflow/python/autograph/operators/control_flow.py:1217:1: note: called from\n    _py_if_stmt(cond, body, orelse)\n^\n/home/binduan/miniconda3/lib/python3.13/site-packages/tensorflow/python/autograph/operators/control_flow.py:1270:1: note: called from\n  return body() if cond else orelse()\n^\n/home/binduan/myspace/trion/trion/oracle/_onnx_ops.py:320:1: note: called from\n        return _conv_transpose(node, get, F)\n^\n/home/binduan/myspace/trion/trion/oracle/_onnx_ops.py:527:1: note: called from\n    if _is_jax_module(F):\n^\n/home/binduan/miniconda3/lib/python3.13/site-packages/tensorflow/python/autograph/operators/control_flow.py:1217:1: note: called from\n    _py_if_stmt(cond, body, orelse)\n^\n/home/binduan/miniconda3/lib/python3.13/site-packages/tensorflow/python/autograph/operators/control_flow.py:1270:1: note: called from\n  return body() if cond else orelse()\n^\n/home/binduan/myspace/trion/trion/oracle/_onnx_ops.py:564:1: note: called from\n        y_nhwc = tf.nn.conv2d_transpose(\n^\n/home/binduan/miniconda3/lib/python3.13/site-packages/tensorflow/python/util/traceback_utils.py:164:1: note: called from\n      return fn(*args, **kwargs)\n^\n/home/binduan/miniconda3/lib/python3.13/site-packages/tensorflow/python/util/dispatch.py:1264:1: note: called from\n        return dispatch_target(*args, **kwargs)\n^\n/home/binduan/myspace/trion/trion/oracle/_onnx_ops.py:319:1: note: see current operation: %44 = \"tf.Conv2DBackpropInput\"(%10, %5, %43) <{data_format = \"NHWC\", dilations = [1, 1, 1, 1], explicit_paddings = [0, 0, 0, 0, 0, 0, 0, 0], padding = \"EXPLICIT\", strides = [1, 4, 4, 1], use_cudnn_on_gpu = true}> {device = \"\"} : (tensor<4xi32>, tensor<4x4x128x3xf32>, tensor<1x32x32x3xf32>) -> tensor<1x128x128x128xf32>\n    if op == \"ConvTranspose\":\n^\n/home/binduan/myspace/trion/trion/oracle/_onnx_ops.py:319:1: note: Error code: ERROR_NEEDS_FLEX_OPS\n<unknown>:0: error: failed while converting: 'main': \nSome ops are not supported by the native TFLite runtime, you can enable TF kernels fallback using TF Select. See instructions: https://www.tensorflow.org/lite/guide/ops_select \nTF Select ops: Conv2DBackpropInput\nDetails:\n\ttf.Conv2DBackpropInput(tensor<4xi32>, tensor<4x4x128x3xf32>, tensor<1x32x32x3xf32>) -> (tensor<1x128x128x128xf32>) : {data_format = \"NHWC\", device = \"\", dilations = [1, 1, 1, 1], explicit_paddings = [0, 0, 0, 0, 0, 0, 0, 0], padding = \"EXPLICIT\", strides = [1, 4, 4, 1], use_cudnn_on_gpu = true}\n\n<unknown>:0: note: see current operation: \n\"func.func\"() <{function_type = (tensor<1x3x32x32xf32>) -> tensor<1x128x128x128xf32>, sym_name = \"main\"}> ({\n^bb0(%arg0: tensor<1x3x32x32xf32>):\n  %0 = \"arith.constant\"() <{value = dense<[1, 1, 32, 32]> : tensor<4xi32>}> : () -> tensor<4xi32>\n  %1 = \"arith.constant\"() <{value = dense<0.999994933> : tensor<1x1x1x128xf32>}> : () -> tensor<1x1x1x128xf32>\n  %2 = \"arith.constant\"() <{value = dense_resource<__elided__> : tensor<1x7x7x2xf32>}> : () -> tensor<1x7x7x2xf32>\n  %3 = \"arith.constant\"() <{value = dense<0.000000e+00> : tensor<1xf32>}> : () -> tensor<1xf32>\n  %4 = \"arith.constant\"() <{value = dense<1.01657689> : tensor<1xf32>}> : () -> tensor<1xf32>\n  %5 = \"arith.constant\"() <{value = dense_resource<__elided__> : tensor<4x4x128x3xf32>}> : () -> tensor<4x4x128x3xf32>\n  %6 = \"arith.constant\"() <{value = dense<[0, 3, 1, 2]> : tensor<4xi32>}> : () -> tensor<4xi32>\n  %7 = \"arith.constant\"() <{value = dense<[0, 2, 3, 1]> : tensor<4xi32>}> : () -> tensor<4xi32>\n  %8 = \"arith.constant\"() <{value = dense_resource<__elided__> : tensor<1x3x32x32xf32>}> : () -> tensor<1x3x32x32xf32>\n  %9 = \"arith.constant\"() <{value = dense_resource<__elided__> : tensor<1x1x1x128xf32>}> : () -> tensor<1x1x1x128xf32>\n  %10 = \"arith.constant\"() <{value = dense<[1, 128, 128, 128]> : tensor<4xi32>}> : () -> tensor<4xi32>\n  %11 = \"arith.constant\"() <{value = dense<9.99999974E-6> : tensor<f32>}> : () -> tensor<f32>\n  %12 = \"arith.constant\"() <{value = dense<-1> : tensor<1xi32>}> : () -> tensor<1xi32>\n  %13 = \"arith.constant\"() <{value = dense<9.99999993E-9> : tensor<1xf32>}> : () -> tensor<1xf32>\n  %14 = \"arith.constant\"() <{value = dense_resource<__elided__> : tensor<1x128x128x128xf32>}> : () -> tensor<1x128x128x128xf32>\n  %15 = \"arith.constant\"() <{value = dense_resource<__elided__> : tensor<1x1x1x128xf32>}> : () -> tensor<1x1x1x128xf32>\n  %16 = \"arith.constant\"() <{value = dense<1> : tensor<1xi32>}> : () -> tensor<1xi32>\n  %17 = \"arith.constant\"() <{value = dense<3> : tensor<1xi32>}> : () -> tensor<1xi32>\n  %18 = \"arith.constant\"() <{value = dense<[-1, 3072]> : tensor<2xi32>}> : () -> tensor<2xi32>\n  %19 = \"arith.constant\"() <{value = dense<[-1, 3, 32, 32]> : tensor<4xi32>}> : () -> tensor<4xi32>\n  %20 = \"tfl.reshape\"(%arg0, %18) : (tensor<1x3x32x32xf32>, tensor<2xi32>) -> tensor<1x3072xf32>\n  %21 = \"tfl.mean\"(%20, %16) <{keep_dims = true}> : (tensor<1x3072xf32>, tensor<1xi32>) -> tensor<1x1xf32>\n  %22 = \"tfl.sub\"(%20, %21) <{fused_activation_function = \"NONE\"}> : (tensor<1x3072xf32>, tensor<1x1xf32>) -> tensor<1x3072xf32>\n  %23 = \"tfl.mul\"(%22, %22) <{fused_activation_function = \"NONE\"}> : (tensor<1x3072xf32>, tensor<1x3072xf32>) -> tensor<1x3072xf32>\n  %24 = \"tfl.mean\"(%23, %16) <{keep_dims = true}> : (tensor<1x3072xf32>, tensor<1xi32>) -> tensor<1x1xf32>\n  %25 = \"tfl.add\"(%24, %11) <{fused_activation_function = \"NONE\"}> : (tensor<1x1xf32>, tensor<f32>) -> tensor<1x1xf32>\n  %26 = \"tfl.rsqrt\"(%25) : (tensor<1x1xf32>) -> tensor<1x1xf32>\n  %27 = \"tfl.mul\"(%22, %26) <{fused_activation_function = \"NONE\"}> : (tensor<1x3072xf32>, tensor<1x1xf32>) -> tensor<1x3072xf32>\n  %28 = \"tfl.reshape\"(%27, %19) : (tensor<1x3072xf32>, tensor<4xi32>) -> tensor<1x3x32x32xf32>\n  %29 = \"tfl.sub\"(%28, %8) <{fused_activation_function = \"NONE\"}> : (tensor<1x3x32x32xf32>, tensor<1x3x32x32xf32>) -> tensor<1x3x32x32xf32>\n  %30 = \"tfl.mul\"(%29, %29) <{fused_activation_function = \"NONE\"}> : (tensor<1x3x32x32xf32>, tensor<1x3x32x32xf32>) -> tensor<1x3x32x32xf32>\n  %31 = \"tfl.sum\"(%30, %12) <{keep_dims = true}> : (tensor<1x3x32x32xf32>, tensor<1xi32>) -> tensor<1x3x32x1xf32>\n  %32 = \"tfl.add\"(%31, %13) <{fused_activation_function = \"NONE\"}> : (tensor<1x3x32x1xf32>, tensor<1xf32>) -> tensor<1x3x32x1xf32>\n  %33 = \"tfl.rsqrt\"(%32) : (tensor<1x3x32x1xf32>) -> tensor<1x3x32x1xf32>\n  %34 = \"tfl.mul\"(%29, %33) <{fused_activation_function = \"NONE\"}> : (tensor<1x3x32x32xf32>, tensor<1x3x32x1xf32>) -> tensor<1x3x32x32xf32>\n  %35 = \"tfl.reduce_max\"(%34, %16) <{keep_dims = true}> : (tensor<1x3x32x32xf32>, tensor<1xi32>) -> tensor<1x1x32x32xf32>\n  %36 = \"tfl.mean\"(%34, %16) <{keep_dims = true}> : (tensor<1x3x32x32xf32>, tensor<1xi32>) -> tensor<1x1x32x32xf32>\n  %37 = \"tfl.concatenation\"(%36, %35) <{axis = 1 : i32, fused_activation_function = \"NONE\"}> : (tensor<1x1x32x32xf32>, tensor<1x1x32x32xf32>) -> tensor<1x2x32x32xf32>\n  %38 = \"tfl.transpose\"(%37, %7) : (tensor<1x2x32x32xf32>, tensor<4xi32>) -> tensor<1x32x32x2xf32>\n  %39 = \"tfl.conv_2d\"(%38, %2, %3) <{dilation_h_factor = 1 : i32, dilation_w_factor = 1 : i32, fused_activation_function = \"NONE\", padding = \"SAME\", stride_h = 1 : i32, stride_w = 1 : i32}> : (tensor<1x32x32x2xf32>, tensor<1x7x7x2xf32>, tensor<1xf32>) -> tensor<1x32x32x1xf32>\n  %40 = \"tfl.logistic\"(%39) : (tensor<1x32x32x1xf32>) -> tensor<1x32x32x1xf32>\n  %41 = \"tfl.reshape\"(%40, %0) : (tensor<1x32x32x1xf32>, tensor<4xi32>) -> tensor<1x1x32x32xf32>\n  %42 = \"tfl.mul\"(%34, %41) <{fused_activation_function = \"NONE\"}> : (tensor<1x3x32x32xf32>, tensor<1x1x32x32xf32>) -> tensor<1x3x32x32xf32>\n  %43 = \"tfl.transpose\"(%42, %7) : (tensor<1x3x32x32xf32>, tensor<4xi32>) -> tensor<1x32x32x3xf32>\n  %44 = \"tf.Conv2DBackpropInput\"(%10, %5, %43) <{data_format = \"NHWC\", dilations = [1, 1, 1, 1], explicit_paddings = [0, 0, 0, 0, 0, 0, 0, 0], padding = \"EXPLICIT\", strides = [1, 4, 4, 1], use_cudnn_on_gpu = true}> {device = \"\"} : (tensor<4xi32>, tensor<4x4x128x3xf32>, tensor<1x32x32x3xf32>) -> tensor<1x128x128x128xf32>\n  %45 = \"tfl.mul\"(%44, %1) <{fused_activation_function = \"RELU\"}> : (tensor<1x128x128x128xf32>, tensor<1x1x1x128xf32>) -> tensor<1x128x128x128xf32>\n  %46 = \"tfl.transpose\"(%45, %6) : (tensor<1x128x128x128xf32>, tensor<4xi32>) -> tensor<1x128x128x128xf32>\n  %47 = \"tfl.mul\"(%46, %4) <{fused_activation_function = \"NONE\"}> : (tensor<1x128x128x128xf32>, tensor<1xf32>) -> tensor<1x128x128x128xf32>\n  %48 = \"tfl.add\"(%47, %14) <{fused_activation_function = \"NONE\"}> : (tensor<1x128x128x128xf32>, tensor<1x128x128x128xf32>) -> tensor<1x128x128x128xf32>\n  %49 = \"tfl.mean\"(%48, %17) <{keep_dims = true}> : (tensor<1x128x128x128xf32>, tensor<1xi32>) -> tensor<1x128x128x1xf32>\n  %50 = \"tfl.sub\"(%48, %49) <{fused_activation_function = \"NONE\"}> : (tensor<1x128x128x128xf32>, tensor<1x128x128x1xf32>) -> tensor<1x128x128x128xf32>\n  %51 = \"tfl.mul\"(%50, %50) <{fused_activation_function = \"NONE\"}> : (tensor<1x128x128x128xf32>, tensor<1x128x128x128xf32>) -> tensor<1x128x128x128xf32>\n  %52 = \"tfl.mean\"(%51, %17) <{keep_dims = true}> : (tensor<1x128x128x128xf32>, tensor<1xi32>) -> tensor<1x128x128x1xf32>\n  %53 = \"tfl.add\"(%52, %11) <{fused_activation_function = \"NONE\"}> : (tensor<1x128x128x1xf32>, tensor<f32>) -> tensor<1x128x128x1xf32>\n  %54 = \"tfl.rsqrt\"(%53) : (tensor<1x128x128x1xf32>) -> tensor<1x128x128x1xf32>\n  %55 = \"tfl.mul\"(%50, %54) <{fused_activation_function = \"NONE\"}> : (tensor<1x128x128x128xf32>, tensor<1x128x128x1xf32>) -> tensor<1x128x128x128xf32>\n  %56 = \"tfl.mul\"(%55, %9) <{fused_activation_function = \"NONE\"}> : (tensor<1x128x128x128xf32>, tensor<1x1x1x128xf32>) -> tensor<1x128x128x128xf32>\n  %57 = \"tfl.add\"(%56, %15) <{fused_activation_function = \"NONE\"}> : (tensor<1x128x128x128xf32>, tensor<1x1x1x128xf32>) -> tensor<1x128x128x128xf32>\n  \"func.return\"(%57) : (tensor<1x128x128x128xf32>) -> ()\n}) {tf.entry_function = {control_outputs = \"\", inputs = \"input\", outputs = \"Identity_2\"}} : () -> ()\n",
    "tflite+noopt": "Could not translate MLIR to FlatBuffer./home/binduan/myspace/trion/trion/oracle/_onnx_ops.py:319:1: error: 'tf.Conv2DBackpropInput' op is neither a custom op nor a flex op\n    if op == \"ConvTranspose\":\n^\n/home/binduan/miniconda3/lib/python3.13/site-packages/tensorflow/python/autograph/operators/control_flow.py:1217:1: note: called from\n    _py_if_stmt(cond, body, orelse)\n^\n/home/binduan/miniconda3/lib/python3.13/site-packages/tensorflow/python/autograph/operators/control_flow.py:1270:1: note: called from\n  return body() if cond else orelse()\n^\n/home/binduan/myspace/trion/trion/oracle/_onnx_ops.py:320:1: note: called from\n        return _conv_transpose(node, get, F)\n^\n/home/binduan/myspace/trion/trion/oracle/_onnx_ops.py:527:1: note: called from\n    if _is_jax_module(F):\n^\n/home/binduan/miniconda3/lib/python3.13/site-packages/tensorflow/python/autograph/operators/control_flow.py:1217:1: note: called from\n    _py_if_stmt(cond, body, orelse)\n^\n/home/binduan/miniconda3/lib/python3.13/site-packages/tensorflow/python/autograph/operators/control_flow.py:1270:1: note: called from\n  return body() if cond else orelse()\n^\n/home/binduan/myspace/trion/trion/oracle/_onnx_ops.py:564:1: note: called from\n        y_nhwc = tf.nn.conv2d_transpose(\n^\n/home/binduan/miniconda3/lib/python3.13/site-packages/tensorflow/python/util/traceback_utils.py:164:1: note: called from\n      return fn(*args, **kwargs)\n^\n/home/binduan/miniconda3/lib/python3.13/site-packages/tensorflow/python/util/dispatch.py:1264:1: note: called from\n        return dispatch_target(*args, **kwargs)\n^\n/home/binduan/myspace/trion/trion/oracle/_onnx_ops.py:319:1: note: see current operation: %44 = \"tf.Conv2DBackpropInput\"(%10, %5, %43) <{data_format = \"NHWC\", dilations = [1, 1, 1, 1], explicit_paddings = [0, 0, 0, 0, 0, 0, 0, 0], padding = \"EXPLICIT\", strides = [1, 4, 4, 1], use_cudnn_on_gpu = true}> {device = \"\"} : (tensor<4xi32>, tensor<4x4x128x3xf32>, tensor<1x32x32x3xf32>) -> tensor<1x128x128x128xf32>\n    if op == \"ConvTranspose\":\n^\n/home/binduan/myspace/trion/trion/oracle/_onnx_ops.py:319:1: note: Error code: ERROR_NEEDS_FLEX_OPS\n<unknown>:0: error: failed while converting: 'main': \nSome ops are not supported by the native TFLite runtime, you can enable TF kernels fallback using TF Select. See instructions: https://www.tensorflow.org/lite/guide/ops_select \nTF Select ops: Conv2DBackpropInput\nDetails:\n\ttf.Conv2DBackpropInput(tensor<4xi32>, tensor<4x4x128x3xf32>, tensor<1x32x32x3xf32>) -> (tensor<1x128x128x128xf32>) : {data_format = \"NHWC\", device = \"\", dilations = [1, 1, 1, 1], explicit_paddings = [0, 0, 0, 0, 0, 0, 0, 0], padding = \"EXPLICIT\", strides = [1, 4, 4, 1], use_cudnn_on_gpu = true}\n\n<unknown>:0: note: see current operation: \n\"func.func\"() <{function_type = (tensor<1x3x32x32xf32>) -> tensor<1x128x128x128xf32>, sym_name = \"main\"}> ({\n^bb0(%arg0: tensor<1x3x32x32xf32>):\n  %0 = \"arith.constant\"() <{value = dense<[1, 1, 32, 32]> : tensor<4xi32>}> : () -> tensor<4xi32>\n  %1 = \"arith.constant\"() <{value = dense<0.999994933> : tensor<1x1x1x128xf32>}> : () -> tensor<1x1x1x128xf32>\n  %2 = \"arith.constant\"() <{value = dense_resource<__elided__> : tensor<1x7x7x2xf32>}> : () -> tensor<1x7x7x2xf32>\n  %3 = \"arith.constant\"() <{value = dense<0.000000e+00> : tensor<1xf32>}> : () -> tensor<1xf32>\n  %4 = \"arith.constant\"() <{value = dense<1.01657689> : tensor<1xf32>}> : () -> tensor<1xf32>\n  %5 = \"arith.constant\"() <{value = dense_resource<__elided__> : tensor<4x4x128x3xf32>}> : () -> tensor<4x4x128x3xf32>\n  %6 = \"arith.constant\"() <{value = dense<[0, 3, 1, 2]> : tensor<4xi32>}> : () -> tensor<4xi32>\n  %7 = \"arith.constant\"() <{value = dense<[0, 2, 3, 1]> : tensor<4xi32>}> : () -> tensor<4xi32>\n  %8 = \"arith.constant\"() <{value = dense_resource<__elided__> : tensor<1x3x32x32xf32>}> : () -> tensor<1x3x32x32xf32>\n  %9 = \"arith.constant\"() <{value = dense_resource<__elided__> : tensor<1x1x1x128xf32>}> : () -> tensor<1x1x1x128xf32>\n  %10 = \"arith.constant\"() <{value = dense<[1, 128, 128, 128]> : tensor<4xi32>}> : () -> tensor<4xi32>\n  %11 = \"arith.constant\"() <{value = dense<9.99999974E-6> : tensor<f32>}> : () -> tensor<f32>\n  %12 = \"arith.constant\"() <{value = dense<-1> : tensor<1xi32>}> : () -> tensor<1xi32>\n  %13 = \"arith.constant\"() <{value = dense<9.99999993E-9> : tensor<1xf32>}> : () -> tensor<1xf32>\n  %14 = \"arith.constant\"() <{value = dense_resource<__elided__> : tensor<1x128x128x128xf32>}> : () -> tensor<1x128x128x128xf32>\n  %15 = \"arith.constant\"() <{value = dense_resource<__elided__> : tensor<1x1x1x128xf32>}> : () -> tensor<1x1x1x128xf32>\n  %16 = \"arith.constant\"() <{value = dense<1> : tensor<1xi32>}> : () -> tensor<1xi32>\n  %17 = \"arith.constant\"() <{value = dense<3> : tensor<1xi32>}> : () -> tensor<1xi32>\n  %18 = \"arith.constant\"() <{value = dense<[-1, 3072]> : tensor<2xi32>}> : () -> tensor<2xi32>\n  %19 = \"arith.constant\"() <{value = dense<[-1, 3, 32, 32]> : tensor<4xi32>}> : () -> tensor<4xi32>\n  %20 = \"tfl.reshape\"(%arg0, %18) : (tensor<1x3x32x32xf32>, tensor<2xi32>) -> tensor<1x3072xf32>\n  %21 = \"tfl.mean\"(%20, %16) <{keep_dims = true}> : (tensor<1x3072xf32>, tensor<1xi32>) -> tensor<1x1xf32>\n  %22 = \"tfl.sub\"(%20, %21) <{fused_activation_function = \"NONE\"}> : (tensor<1x3072xf32>, tensor<1x1xf32>) -> tensor<1x3072xf32>\n  %23 = \"tfl.mul\"(%22, %22) <{fused_activation_function = \"NONE\"}> : (tensor<1x3072xf32>, tensor<1x3072xf32>) -> tensor<1x3072xf32>\n  %24 = \"tfl.mean\"(%23, %16) <{keep_dims = true}> : (tensor<1x3072xf32>, tensor<1xi32>) -> tensor<1x1xf32>\n  %25 = \"tfl.add\"(%24, %11) <{fused_activation_function = \"NONE\"}> : (tensor<1x1xf32>, tensor<f32>) -> tensor<1x1xf32>\n  %26 = \"tfl.rsqrt\"(%25) : (tensor<1x1xf32>) -> tensor<1x1xf32>\n  %27 = \"tfl.mul\"(%22, %26) <{fused_activation_function = \"NONE\"}> : (tensor<1x3072xf32>, tensor<1x1xf32>) -> tensor<1x3072xf32>\n  %28 = \"tfl.reshape\"(%27, %19) : (tensor<1x3072xf32>, tensor<4xi32>) -> tensor<1x3x32x32xf32>\n  %29 = \"tfl.sub\"(%28, %8) <{fused_activation_function = \"NONE\"}> : (tensor<1x3x32x32xf32>, tensor<1x3x32x32xf32>) -> tensor<1x3x32x32xf32>\n  %30 = \"tfl.mul\"(%29, %29) <{fused_activation_function = \"NONE\"}> : (tensor<1x3x32x32xf32>, tensor<1x3x32x32xf32>) -> tensor<1x3x32x32xf32>\n  %31 = \"tfl.sum\"(%30, %12) <{keep_dims = true}> : (tensor<1x3x32x32xf32>, tensor<1xi32>) -> tensor<1x3x32x1xf32>\n  %32 = \"tfl.add\"(%31, %13) <{fused_activation_function = \"NONE\"}> : (tensor<1x3x32x1xf32>, tensor<1xf32>) -> tensor<1x3x32x1xf32>\n  %33 = \"tfl.rsqrt\"(%32) : (tensor<1x3x32x1xf32>) -> tensor<1x3x32x1xf32>\n  %34 = \"tfl.mul\"(%29, %33) <{fused_activation_function = \"NONE\"}> : (tensor<1x3x32x32xf32>, tensor<1x3x32x1xf32>) -> tensor<1x3x32x32xf32>\n  %35 = \"tfl.reduce_max\"(%34, %16) <{keep_dims = true}> : (tensor<1x3x32x32xf32>, tensor<1xi32>) -> tensor<1x1x32x32xf32>\n  %36 = \"tfl.mean\"(%34, %16) <{keep_dims = true}> : (tensor<1x3x32x32xf32>, tensor<1xi32>) -> tensor<1x1x32x32xf32>\n  %37 = \"tfl.concatenation\"(%36, %35) <{axis = 1 : i32, fused_activation_function = \"NONE\"}> : (tensor<1x1x32x32xf32>, tensor<1x1x32x32xf32>) -> tensor<1x2x32x32xf32>\n  %38 = \"tfl.transpose\"(%37, %7) : (tensor<1x2x32x32xf32>, tensor<4xi32>) -> tensor<1x32x32x2xf32>\n  %39 = \"tfl.conv_2d\"(%38, %2, %3) <{dilation_h_factor = 1 : i32, dilation_w_factor = 1 : i32, fused_activation_function = \"NONE\", padding = \"SAME\", stride_h = 1 : i32, stride_w = 1 : i32}> : (tensor<1x32x32x2xf32>, tensor<1x7x7x2xf32>, tensor<1xf32>) -> tensor<1x32x32x1xf32>\n  %40 = \"tfl.logistic\"(%39) : (tensor<1x32x32x1xf32>) -> tensor<1x32x32x1xf32>\n  %41 = \"tfl.reshape\"(%40, %0) : (tensor<1x32x32x1xf32>, tensor<4xi32>) -> tensor<1x1x32x32xf32>\n  %42 = \"tfl.mul\"(%34, %41) <{fused_activation_function = \"NONE\"}> : (tensor<1x3x32x32xf32>, tensor<1x1x32x32xf32>) -> tensor<1x3x32x32xf32>\n  %43 = \"tfl.transpose\"(%42, %7) : (tensor<1x3x32x32xf32>, tensor<4xi32>) -> tensor<1x32x32x3xf32>\n  %44 = \"tf.Conv2DBackpropInput\"(%10, %5, %43) <{data_format = \"NHWC\", dilations = [1, 1, 1, 1], explicit_paddings = [0, 0, 0, 0, 0, 0, 0, 0], padding = \"EXPLICIT\", strides = [1, 4, 4, 1], use_cudnn_on_gpu = true}> {device = \"\"} : (tensor<4xi32>, tensor<4x4x128x3xf32>, tensor<1x32x32x3xf32>) -> tensor<1x128x128x128xf32>\n  %45 = \"tfl.mul\"(%44, %1) <{fused_activation_function = \"RELU\"}> : (tensor<1x128x128x128xf32>, tensor<1x1x1x128xf32>) -> tensor<1x128x128x128xf32>\n  %46 = \"tfl.transpose\"(%45, %6) : (tensor<1x128x128x128xf32>, tensor<4xi32>) -> tensor<1x128x128x128xf32>\n  %47 = \"tfl.mul\"(%46, %4) <{fused_activation_function = \"NONE\"}> : (tensor<1x128x128x128xf32>, tensor<1xf32>) -> tensor<1x128x128x128xf32>\n  %48 = \"tfl.add\"(%47, %14) <{fused_activation_function = \"NONE\"}> : (tensor<1x128x128x128xf32>, tensor<1x128x128x128xf32>) -> tensor<1x128x128x128xf32>\n  %49 = \"tfl.mean\"(%48, %17) <{keep_dims = true}> : (tensor<1x128x128x128xf32>, tensor<1xi32>) -> tensor<1x128x128x1xf32>\n  %50 = \"tfl.sub\"(%48, %49) <{fused_activation_function = \"NONE\"}> : (tensor<1x128x128x128xf32>, tensor<1x128x128x1xf32>) -> tensor<1x128x128x128xf32>\n  %51 = \"tfl.mul\"(%50, %50) <{fused_activation_function = \"NONE\"}> : (tensor<1x128x128x128xf32>, tensor<1x128x128x128xf32>) -> tensor<1x128x128x128xf32>\n  %52 = \"tfl.mean\"(%51, %17) <{keep_dims = true}> : (tensor<1x128x128x128xf32>, tensor<1xi32>) -> tensor<1x128x128x1xf32>\n  %53 = \"tfl.add\"(%52, %11) <{fused_activation_function = \"NONE\"}> : (tensor<1x128x128x1xf32>, tensor<f32>) -> tensor<1x128x128x1xf32>\n  %54 = \"tfl.rsqrt\"(%53) : (tensor<1x128x128x1xf32>) -> tensor<1x128x128x1xf32>\n  %55 = \"tfl.mul\"(%50, %54) <{fused_activation_function = \"NONE\"}> : (tensor<1x128x128x128xf32>, tensor<1x128x128x1xf32>) -> tensor<1x128x128x128xf32>\n  %56 = \"tfl.mul\"(%55, %9) <{fused_activation_function = \"NONE\"}> : (tensor<1x128x128x128xf32>, tensor<1x1x1x128xf32>) -> tensor<1x128x128x128xf32>\n  %57 = \"tfl.add\"(%56, %15) <{fused_activation_function = \"NONE\"}> : (tensor<1x128x128x128xf32>, tensor<1x1x1x128xf32>) -> tensor<1x128x128x128xf32>\n  \"func.return\"(%57) : (tensor<1x128x128x128xf32>) -> ()\n}) {tf.entry_function = {control_outputs = \"\", inputs = \"input\", outputs = \"Identity_2\"}} : () -> ()\n"
  },
  "bug_id": "bug_0181"
}